{"format": "graph-model", "generatedBy": "2.17.0", "convertedBy": "TensorFlow.js Converter v4.22.0", "signature": {"inputs": {"input_bgr": {"name": "input_bgr:0", "dtype": "DT_FLOAT", "tensorShape": {"dim": [{"size": "1"}, {"size": "-1"}, {"size": "-1"}, {"size": "3"}]}}}, "outputs": {"output_0": {"name": "Identity:0", "dtype": "DT_FLOAT", "tensorShape": {"dim": [{"size": "300"}, {"size": "7"}]}}}}, "modelTopology": {"node": [{"name": "unknown_517", "op": "Const", "attr": {"value": {"tensor": {"dtype": "DT_INT64", "tensorShape": {"dim": [{"size": "2"}]}}}, "dtype": {"type": "DT_INT64"}}}, {"name": "unknown_518", "op": "Const", "attr": {"value": {"tensor": {"dtype": "DT_INT64", "tensorShape": {"dim": [{"size": "2"}]}}}, "dtype": {"type": "DT_INT64"}}}, {"name": "StatefulPartitionedCall/model_17/tf.strided_slice_44/StridedSlice/strides", "op": "Const", "attr": {"value": {"tensor": {"dtype": "DT_INT64", "tensorShape": {"dim": [{"size": "2"}]}}}, "dtype": {"type": "DT_INT64"}}}, {"name": "unknown_515", "op": "Const", "attr": {"value": {"tensor": {"dtype": "DT_INT64", "tensorShape": {"dim": [{"size": "2"}]}}}, "dtype": {"type": "DT_INT64"}}}, {"name": "unknown_516", "op": "Const", "attr": {"value": {"tensor": {"dtype": "DT_INT64", "tensorShape": {"dim": [{"size": "2"}]}}}, "dtype": {"type": "DT_INT64"}}}, {"name": "StatefulPartitionedCall/model_17/tf.strided_slice_45/StridedSlice/strides", "op": "Const", "attr": {"value": {"tensor": {"dtype": "DT_INT64", "tensorShape": {"dim": [{"size": "2"}]}}}, "dtype": {"type": "DT_INT64"}}}, {"name": "unknown_512", "op": "Const", "attr": {"value": {"tensor": {"dtype": "DT_INT64", "tensorShape": {"dim": [{"size": "3"}]}}}, "dtype": {"type": "DT_INT64"}}}, {"name": "StatefulPartitionedCall/model_17/tf.reshape_15/Reshape/shape", "op": "Const", "attr": {"value": {"tensor": {"dtype": "DT_INT32", "tensorShape": {"dim": [{"size": "2"}]}}}, "dtype": {"type": "DT_INT32"}}}, {"name": "StatefulPartitionedCall/model_17/tf.concat_39/concat/axis", "op": "Const", "attr": {"value": {"tensor": {"dtype": "DT_INT32", "tensorShape": {}}}, "dtype": {"type": "DT_INT32"}}}, {"name": "StatefulPartitionedCall/model_17/tf.strided_slice_29/StridedSlice/begin", "op": "Const", "attr": {"value": {"tensor": {"dtype": "DT_INT32", "tensorShape": {"dim": [{"size": "2"}]}}}, "dtype": {"type": "DT_INT32"}}}, {"name": "StatefulPartitionedCall/model_17/tf.strided_slice_29/StridedSlice/end", "op": "Const", "attr": {"value": {"tensor": {"dtype": "DT_INT32", "tensorShape": {"dim": [{"size": "2"}]}}}, "dtype": {"type": "DT_INT32"}}}, {"name": "StatefulPartitionedCall/model_17/tf.strided_slice_29/ones_like", "op": "Const", "attr": {"value": {"tensor": {"dtype": "DT_INT32", "tensorShape": {"dim": [{"size": "2"}]}}}, "dtype": {"type": "DT_INT32"}}}, {"name": "StatefulPartitionedCall/model_17/tf.compat.v1.transpose_29/transpose/perm", "op": "Const", "attr": {"value": {"tensor": {"dtype": "DT_INT32", "tensorShape": {"dim": [{"size": "2"}]}}}, "dtype": {"type": "DT_INT32"}}}, {"name": "unknown_454", "op": "Const", "attr": {"value": {"tensor": {"dtype": "DT_INT64", "tensorShape": {}}}, "dtype": {"type": "DT_INT64"}}}, {"name": "unknown_453", "op": "Const", "attr": {"value": {"tensor": {"dtype": "DT_INT32", "tensorShape": {"dim": [{"size": "2"}, {"size": "2"}]}}}, "dtype": {"type": "DT_INT32"}}}, {"name": "unknown_459", "op": "Const", "attr": {"value": {"tensor": {"dtype": "DT_INT64", "tensorShape": {}}}, "dtype": {"type": "DT_INT64"}}}, {"name": "StatefulPartitionedCall/model_17/tf.strided_slice_30/StridedSlice/begin", "op": "Const", "attr": {"value": {"tensor": {"dtype": "DT_INT32", "tensorShape": {"dim": [{"size": "2"}]}}}, "dtype": {"type": "DT_INT32"}}}, {"name": "StatefulPartitionedCall/model_17/tf.strided_slice_30/StridedSlice/end", "op": "Const", "attr": {"value": {"tensor": {"dtype": "DT_INT32", "tensorShape": {"dim": [{"size": "2"}]}}}, "dtype": {"type": "DT_INT32"}}}, {"name": "StatefulPartitionedCall/model_17/tf.strided_slice_30/ones_like", "op": "Const", "attr": {"value": {"tensor": {"dtype": "DT_INT32", "tensorShape": {"dim": [{"size": "2"}]}}}, "dtype": {"type": "DT_INT32"}}}, {"name": "StatefulPartitionedCall/model_17/tf.compat.v1.transpose_30/transpose/perm", "op": "Const", "attr": {"value": {"tensor": {"dtype": "DT_INT32", "tensorShape": {"dim": [{"size": "2"}]}}}, "dtype": {"type": "DT_INT32"}}}, {"name": "unknown_452", "op": "Const", "attr": {"value": {"tensor": {"dtype": "DT_INT64", "tensorShape": {}}}, "dtype": {"type": "DT_INT64"}}}, {"name": "unknown_451", "op": "Const", "attr": {"value": {"tensor": {"dtype": "DT_INT32", "tensorShape": {"dim": [{"size": "2"}, {"size": "2"}]}}}, "dtype": {"type": "DT_INT32"}}}, {"name": "unknown_460", "op": "Const", "attr": {"value": {"tensor": {"dtype": "DT_INT64", "tensorShape": {}}}, "dtype": {"type": "DT_INT64"}}}, {"name": "StatefulPartitionedCall/model_17/tf.strided_slice_31/StridedSlice/begin", "op": "Const", "attr": {"value": {"tensor": {"dtype": "DT_INT32", "tensorShape": {"dim": [{"size": "2"}]}}}, "dtype": {"type": "DT_INT32"}}}, {"name": "StatefulPartitionedCall/model_17/tf.strided_slice_31/StridedSlice/end", "op": "Const", "attr": {"value": {"tensor": {"dtype": "DT_INT32", "tensorShape": {"dim": [{"size": "2"}]}}}, "dtype": {"type": "DT_INT32"}}}, {"name": "StatefulPartitionedCall/model_17/tf.strided_slice_31/ones_like", "op": "Const", "attr": {"value": {"tensor": {"dtype": "DT_INT32", "tensorShape": {"dim": [{"size": "2"}]}}}, "dtype": {"type": "DT_INT32"}}}, {"name": "StatefulPartitionedCall/model_17/tf.compat.v1.transpose_31/transpose/perm", "op": "Const", "attr": {"value": {"tensor": {"dtype": "DT_INT32", "tensorShape": {"dim": [{"size": "2"}]}}}, "dtype": {"type": "DT_INT32"}}}, {"name": "unknown_458", "op": "Const", "attr": {"value": {"tensor": {"dtype": "DT_INT64", "tensorShape": {}}}, "dtype": {"type": "DT_INT64"}}}, {"name": "unknown_457", "op": "Const", "attr": {"value": {"tensor": {"dtype": "DT_INT32", "tensorShape": {"dim": [{"size": "2"}, {"size": "2"}]}}}, "dtype": {"type": "DT_INT32"}}}, {"name": "unknown_465", "op": "Const", "attr": {"value": {"tensor": {"dtype": "DT_INT64", "tensorShape": {}}}, "dtype": {"type": "DT_INT64"}}}, {"name": "StatefulPartitionedCall/model_17/tf.strided_slice_32/StridedSlice/begin", "op": "Const", "attr": {"value": {"tensor": {"dtype": "DT_INT32", "tensorShape": {"dim": [{"size": "2"}]}}}, "dtype": {"type": "DT_INT32"}}}, {"name": "StatefulPartitionedCall/model_17/tf.strided_slice_32/StridedSlice/end", "op": "Const", "attr": {"value": {"tensor": {"dtype": "DT_INT32", "tensorShape": {"dim": [{"size": "2"}]}}}, "dtype": {"type": "DT_INT32"}}}, {"name": "StatefulPartitionedCall/model_17/tf.strided_slice_32/ones_like", "op": "Const", "attr": {"value": {"tensor": {"dtype": "DT_INT32", "tensorShape": {"dim": [{"size": "2"}]}}}, "dtype": {"type": "DT_INT32"}}}, {"name": "StatefulPartitionedCall/model_17/tf.compat.v1.transpose_32/transpose/perm", "op": "Const", "attr": {"value": {"tensor": {"dtype": "DT_INT32", "tensorShape": {"dim": [{"size": "2"}]}}}, "dtype": {"type": "DT_INT32"}}}, {"name": "unknown_464", "op": "Const", "attr": {"value": {"tensor": {"dtype": "DT_INT64", "tensorShape": {}}}, "dtype": {"type": "DT_INT64"}}}, {"name": "unknown_463", "op": "Const", "attr": {"value": {"tensor": {"dtype": "DT_INT32", "tensorShape": {"dim": [{"size": "2"}, {"size": "2"}]}}}, "dtype": {"type": "DT_INT32"}}}, {"name": "unknown_470", "op": "Const", "attr": {"value": {"tensor": {"dtype": "DT_INT64", "tensorShape": {}}}, "dtype": {"type": "DT_INT64"}}}, {"name": "StatefulPartitionedCall/model_17/tf.strided_slice_33/StridedSlice/begin", "op": "Const", "attr": {"value": {"tensor": {"dtype": "DT_INT32", "tensorShape": {"dim": [{"size": "2"}]}}}, "dtype": {"type": "DT_INT32"}}}, {"name": "StatefulPartitionedCall/model_17/tf.strided_slice_33/StridedSlice/end", "op": "Const", "attr": {"value": {"tensor": {"dtype": "DT_INT32", "tensorShape": {"dim": [{"size": "2"}]}}}, "dtype": {"type": "DT_INT32"}}}, {"name": "StatefulPartitionedCall/model_17/tf.strided_slice_33/ones_like", "op": "Const", "attr": {"value": {"tensor": {"dtype": "DT_INT32", "tensorShape": {"dim": [{"size": "2"}]}}}, "dtype": {"type": "DT_INT32"}}}, {"name": "StatefulPartitionedCall/model_17/tf.compat.v1.transpose_33/transpose/perm", "op": "Const", "attr": {"value": {"tensor": {"dtype": "DT_INT32", "tensorShape": {"dim": [{"size": "2"}]}}}, "dtype": {"type": "DT_INT32"}}}, {"name": "unknown_469", "op": "Const", "attr": {"value": {"tensor": {"dtype": "DT_INT64", "tensorShape": {}}}, "dtype": {"type": "DT_INT64"}}}, {"name": "unknown_468", "op": "Const", "attr": {"value": {"tensor": {"dtype": "DT_INT32", "tensorShape": {"dim": [{"size": "2"}, {"size": "2"}]}}}, "dtype": {"type": "DT_INT32"}}}, {"name": "unknown_475", "op": "Const", "attr": {"value": {"tensor": {"dtype": "DT_INT64", "tensorShape": {}}}, "dtype": {"type": "DT_INT64"}}}, {"name": "StatefulPartitionedCall/model_17/tf.strided_slice_34/StridedSlice/begin", "op": "Const", "attr": {"value": {"tensor": {"dtype": "DT_INT32", "tensorShape": {"dim": [{"size": "2"}]}}}, "dtype": {"type": "DT_INT32"}}}, {"name": "StatefulPartitionedCall/model_17/tf.strided_slice_34/StridedSlice/end", "op": "Const", "attr": {"value": {"tensor": {"dtype": "DT_INT32", "tensorShape": {"dim": [{"size": "2"}]}}}, "dtype": {"type": "DT_INT32"}}}, {"name": "StatefulPartitionedCall/model_17/tf.strided_slice_34/ones_like", "op": "Const", "attr": {"value": {"tensor": {"dtype": "DT_INT32", "tensorShape": {"dim": [{"size": "2"}]}}}, "dtype": {"type": "DT_INT32"}}}, {"name": "StatefulPartitionedCall/model_17/tf.compat.v1.transpose_34/transpose/perm", "op": "Const", "attr": {"value": {"tensor": {"dtype": "DT_INT32", "tensorShape": {"dim": [{"size": "2"}]}}}, "dtype": {"type": "DT_INT32"}}}, {"name": "unknown_474", "op": "Const", "attr": {"value": {"tensor": {"dtype": "DT_INT64", "tensorShape": {}}}, "dtype": {"type": "DT_INT64"}}}, {"name": "unknown_473", "op": "Const", "attr": {"value": {"tensor": {"dtype": "DT_INT32", "tensorShape": {"dim": [{"size": "2"}, {"size": "2"}]}}}, "dtype": {"type": "DT_INT32"}}}, {"name": "unknown_480", "op": "Const", "attr": {"value": {"tensor": {"dtype": "DT_INT64", "tensorShape": {}}}, "dtype": {"type": "DT_INT64"}}}, {"name": "StatefulPartitionedCall/model_17/tf.strided_slice_35/StridedSlice/begin", "op": "Const", "attr": {"value": {"tensor": {"dtype": "DT_INT32", "tensorShape": {"dim": [{"size": "2"}]}}}, "dtype": {"type": "DT_INT32"}}}, {"name": "StatefulPartitionedCall/model_17/tf.strided_slice_35/StridedSlice/end", "op": "Const", "attr": {"value": {"tensor": {"dtype": "DT_INT32", "tensorShape": {"dim": [{"size": "2"}]}}}, "dtype": {"type": "DT_INT32"}}}, {"name": "StatefulPartitionedCall/model_17/tf.strided_slice_35/ones_like", "op": "Const", "attr": {"value": {"tensor": {"dtype": "DT_INT32", "tensorShape": {"dim": [{"size": "2"}]}}}, "dtype": {"type": "DT_INT32"}}}, {"name": "StatefulPartitionedCall/model_17/tf.compat.v1.transpose_35/transpose/perm", "op": "Const", "attr": {"value": {"tensor": {"dtype": "DT_INT32", "tensorShape": {"dim": [{"size": "2"}]}}}, "dtype": {"type": "DT_INT32"}}}, {"name": "unknown_479", "op": "Const", "attr": {"value": {"tensor": {"dtype": "DT_INT64", "tensorShape": {}}}, "dtype": {"type": "DT_INT64"}}}, {"name": "unknown_478", "op": "Const", "attr": {"value": {"tensor": {"dtype": "DT_INT32", "tensorShape": {"dim": [{"size": "2"}, {"size": "2"}]}}}, "dtype": {"type": "DT_INT32"}}}, {"name": "unknown_485", "op": "Const", "attr": {"value": {"tensor": {"dtype": "DT_INT64", "tensorShape": {}}}, "dtype": {"type": "DT_INT64"}}}, {"name": "StatefulPartitionedCall/model_17/tf.strided_slice_36/StridedSlice/begin", "op": "Const", "attr": {"value": {"tensor": {"dtype": "DT_INT32", "tensorShape": {"dim": [{"size": "2"}]}}}, "dtype": {"type": "DT_INT32"}}}, {"name": "StatefulPartitionedCall/model_17/tf.strided_slice_36/StridedSlice/end", "op": "Const", "attr": {"value": {"tensor": {"dtype": "DT_INT32", "tensorShape": {"dim": [{"size": "2"}]}}}, "dtype": {"type": "DT_INT32"}}}, {"name": "StatefulPartitionedCall/model_17/tf.strided_slice_36/ones_like", "op": "Const", "attr": {"value": {"tensor": {"dtype": "DT_INT32", "tensorShape": {"dim": [{"size": "2"}]}}}, "dtype": {"type": "DT_INT32"}}}, {"name": "StatefulPartitionedCall/model_17/tf.compat.v1.transpose_36/transpose/perm", "op": "Const", "attr": {"value": {"tensor": {"dtype": "DT_INT32", "tensorShape": {"dim": [{"size": "2"}]}}}, "dtype": {"type": "DT_INT32"}}}, {"name": "unknown_484", "op": "Const", "attr": {"value": {"tensor": {"dtype": "DT_INT64", "tensorShape": {}}}, "dtype": {"type": "DT_INT64"}}}, {"name": "unknown_483", "op": "Const", "attr": {"value": {"tensor": {"dtype": "DT_INT32", "tensorShape": {"dim": [{"size": "2"}, {"size": "2"}]}}}, "dtype": {"type": "DT_INT32"}}}, {"name": "unknown_490", "op": "Const", "attr": {"value": {"tensor": {"dtype": "DT_INT64", "tensorShape": {}}}, "dtype": {"type": "DT_INT64"}}}, {"name": "StatefulPartitionedCall/model_17/tf.strided_slice_37/StridedSlice/begin", "op": "Const", "attr": {"value": {"tensor": {"dtype": "DT_INT32", "tensorShape": {"dim": [{"size": "2"}]}}}, "dtype": {"type": "DT_INT32"}}}, {"name": "StatefulPartitionedCall/model_17/tf.strided_slice_37/StridedSlice/end", "op": "Const", "attr": {"value": {"tensor": {"dtype": "DT_INT32", "tensorShape": {"dim": [{"size": "2"}]}}}, "dtype": {"type": "DT_INT32"}}}, {"name": "StatefulPartitionedCall/model_17/tf.strided_slice_37/ones_like", "op": "Const", "attr": {"value": {"tensor": {"dtype": "DT_INT32", "tensorShape": {"dim": [{"size": "2"}]}}}, "dtype": {"type": "DT_INT32"}}}, {"name": "StatefulPartitionedCall/model_17/tf.compat.v1.transpose_37/transpose/perm", "op": "Const", "attr": {"value": {"tensor": {"dtype": "DT_INT32", "tensorShape": {"dim": [{"size": "2"}]}}}, "dtype": {"type": "DT_INT32"}}}, {"name": "unknown_489", "op": "Const", "attr": {"value": {"tensor": {"dtype": "DT_INT64", "tensorShape": {}}}, "dtype": {"type": "DT_INT64"}}}, {"name": "unknown_488", "op": "Const", "attr": {"value": {"tensor": {"dtype": "DT_INT32", "tensorShape": {"dim": [{"size": "2"}, {"size": "2"}]}}}, "dtype": {"type": "DT_INT32"}}}, {"name": "unknown_495", "op": "Const", "attr": {"value": {"tensor": {"dtype": "DT_INT64", "tensorShape": {}}}, "dtype": {"type": "DT_INT64"}}}, {"name": "StatefulPartitionedCall/model_17/tf.strided_slice_38/StridedSlice/begin", "op": "Const", "attr": {"value": {"tensor": {"dtype": "DT_INT32", "tensorShape": {"dim": [{"size": "2"}]}}}, "dtype": {"type": "DT_INT32"}}}, {"name": "StatefulPartitionedCall/model_17/tf.strided_slice_38/StridedSlice/end", "op": "Const", "attr": {"value": {"tensor": {"dtype": "DT_INT32", "tensorShape": {"dim": [{"size": "2"}]}}}, "dtype": {"type": "DT_INT32"}}}, {"name": "StatefulPartitionedCall/model_17/tf.strided_slice_38/ones_like", "op": "Const", "attr": {"value": {"tensor": {"dtype": "DT_INT32", "tensorShape": {"dim": [{"size": "2"}]}}}, "dtype": {"type": "DT_INT32"}}}, {"name": "StatefulPartitionedCall/model_17/tf.compat.v1.transpose_38/transpose/perm", "op": "Const", "attr": {"value": {"tensor": {"dtype": "DT_INT32", "tensorShape": {"dim": [{"size": "2"}]}}}, "dtype": {"type": "DT_INT32"}}}, {"name": "unknown_494", "op": "Const", "attr": {"value": {"tensor": {"dtype": "DT_INT64", "tensorShape": {}}}, "dtype": {"type": "DT_INT64"}}}, {"name": "unknown_493", "op": "Const", "attr": {"value": {"tensor": {"dtype": "DT_INT32", "tensorShape": {"dim": [{"size": "2"}, {"size": "2"}]}}}, "dtype": {"type": "DT_INT32"}}}, {"name": "unknown_498", "op": "Const", "attr": {"value": {"tensor": {"dtype": "DT_INT64", "tensorShape": {}}}, "dtype": {"type": "DT_INT64"}}}, {"name": "StatefulPartitionedCall/model_17/tf.strided_slice_39/StridedSlice/begin", "op": "Const", "attr": {"value": {"tensor": {"dtype": "DT_INT32", "tensorShape": {"dim": [{"size": "2"}]}}}, "dtype": {"type": "DT_INT32"}}}, {"name": "StatefulPartitionedCall/model_17/tf.strided_slice_39/StridedSlice/end", "op": "Const", "attr": {"value": {"tensor": {"dtype": "DT_INT32", "tensorShape": {"dim": [{"size": "2"}]}}}, "dtype": {"type": "DT_INT32"}}}, {"name": "StatefulPartitionedCall/model_17/tf.strided_slice_39/ones_like", "op": "Const", "attr": {"value": {"tensor": {"dtype": "DT_INT32", "tensorShape": {"dim": [{"size": "2"}]}}}, "dtype": {"type": "DT_INT32"}}}, {"name": "StatefulPartitionedCall/model_17/tf.compat.v1.transpose_39/transpose/perm", "op": "Const", "attr": {"value": {"tensor": {"dtype": "DT_INT32", "tensorShape": {"dim": [{"size": "2"}]}}}, "dtype": {"type": "DT_INT32"}}}, {"name": "unknown_497", "op": "Const", "attr": {"value": {"tensor": {"dtype": "DT_INT64", "tensorShape": {}}}, "dtype": {"type": "DT_INT64"}}}, {"name": "unknown_496", "op": "Const", "attr": {"value": {"tensor": {"dtype": "DT_INT32", "tensorShape": {"dim": [{"size": "2"}, {"size": "2"}]}}}, "dtype": {"type": "DT_INT32"}}}, {"name": "unknown_501", "op": "Const", "attr": {"value": {"tensor": {"dtype": "DT_INT64", "tensorShape": {}}}, "dtype": {"type": "DT_INT64"}}}, {"name": "StatefulPartitionedCall/model_17/tf.strided_slice_40/StridedSlice/begin", "op": "Const", "attr": {"value": {"tensor": {"dtype": "DT_INT32", "tensorShape": {"dim": [{"size": "2"}]}}}, "dtype": {"type": "DT_INT32"}}}, {"name": "StatefulPartitionedCall/model_17/tf.strided_slice_40/StridedSlice/end", "op": "Const", "attr": {"value": {"tensor": {"dtype": "DT_INT32", "tensorShape": {"dim": [{"size": "2"}]}}}, "dtype": {"type": "DT_INT32"}}}, {"name": "StatefulPartitionedCall/model_17/tf.strided_slice_40/ones_like", "op": "Const", "attr": {"value": {"tensor": {"dtype": "DT_INT32", "tensorShape": {"dim": [{"size": "2"}]}}}, "dtype": {"type": "DT_INT32"}}}, {"name": "StatefulPartitionedCall/model_17/tf.compat.v1.transpose_40/transpose/perm", "op": "Const", "attr": {"value": {"tensor": {"dtype": "DT_INT32", "tensorShape": {"dim": [{"size": "2"}]}}}, "dtype": {"type": "DT_INT32"}}}, {"name": "unknown_500", "op": "Const", "attr": {"value": {"tensor": {"dtype": "DT_INT64", "tensorShape": {}}}, "dtype": {"type": "DT_INT64"}}}, {"name": "unknown_499", "op": "Const", "attr": {"value": {"tensor": {"dtype": "DT_INT32", "tensorShape": {"dim": [{"size": "2"}, {"size": "2"}]}}}, "dtype": {"type": "DT_INT32"}}}, {"name": "unknown_504", "op": "Const", "attr": {"value": {"tensor": {"dtype": "DT_INT64", "tensorShape": {}}}, "dtype": {"type": "DT_INT64"}}}, {"name": "StatefulPartitionedCall/model_17/tf.strided_slice_41/StridedSlice/begin", "op": "Const", "attr": {"value": {"tensor": {"dtype": "DT_INT32", "tensorShape": {"dim": [{"size": "2"}]}}}, "dtype": {"type": "DT_INT32"}}}, {"name": "StatefulPartitionedCall/model_17/tf.strided_slice_41/StridedSlice/end", "op": "Const", "attr": {"value": {"tensor": {"dtype": "DT_INT32", "tensorShape": {"dim": [{"size": "2"}]}}}, "dtype": {"type": "DT_INT32"}}}, {"name": "StatefulPartitionedCall/model_17/tf.strided_slice_41/ones_like", "op": "Const", "attr": {"value": {"tensor": {"dtype": "DT_INT32", "tensorShape": {"dim": [{"size": "2"}]}}}, "dtype": {"type": "DT_INT32"}}}, {"name": "StatefulPartitionedCall/model_17/tf.compat.v1.transpose_41/transpose/perm", "op": "Const", "attr": {"value": {"tensor": {"dtype": "DT_INT32", "tensorShape": {"dim": [{"size": "2"}]}}}, "dtype": {"type": "DT_INT32"}}}, {"name": "unknown_503", "op": "Const", "attr": {"value": {"tensor": {"dtype": "DT_INT64", "tensorShape": {}}}, "dtype": {"type": "DT_INT64"}}}, {"name": "unknown_502", "op": "Const", "attr": {"value": {"tensor": {"dtype": "DT_INT32", "tensorShape": {"dim": [{"size": "2"}, {"size": "2"}]}}}, "dtype": {"type": "DT_INT32"}}}, {"name": "unknown_507", "op": "Const", "attr": {"value": {"tensor": {"dtype": "DT_INT64", "tensorShape": {}}}, "dtype": {"type": "DT_INT64"}}}, {"name": "StatefulPartitionedCall/model_17/tf.strided_slice_42/StridedSlice/begin", "op": "Const", "attr": {"value": {"tensor": {"dtype": "DT_INT32", "tensorShape": {"dim": [{"size": "2"}]}}}, "dtype": {"type": "DT_INT32"}}}, {"name": "StatefulPartitionedCall/model_17/tf.strided_slice_42/StridedSlice/end", "op": "Const", "attr": {"value": {"tensor": {"dtype": "DT_INT32", "tensorShape": {"dim": [{"size": "2"}]}}}, "dtype": {"type": "DT_INT32"}}}, {"name": "StatefulPartitionedCall/model_17/tf.strided_slice_42/ones_like", "op": "Const", "attr": {"value": {"tensor": {"dtype": "DT_INT32", "tensorShape": {"dim": [{"size": "2"}]}}}, "dtype": {"type": "DT_INT32"}}}, {"name": "StatefulPartitionedCall/model_17/tf.compat.v1.transpose_42/transpose/perm", "op": "Const", "attr": {"value": {"tensor": {"dtype": "DT_INT32", "tensorShape": {"dim": [{"size": "2"}]}}}, "dtype": {"type": "DT_INT32"}}}, {"name": "unknown_506", "op": "Const", "attr": {"value": {"tensor": {"dtype": "DT_INT64", "tensorShape": {}}}, "dtype": {"type": "DT_INT64"}}}, {"name": "unknown_505", "op": "Const", "attr": {"value": {"tensor": {"dtype": "DT_INT32", "tensorShape": {"dim": [{"size": "2"}, {"size": "2"}]}}}, "dtype": {"type": "DT_INT32"}}}, {"name": "unknown_510", "op": "Const", "attr": {"value": {"tensor": {"dtype": "DT_INT64", "tensorShape": {}}}, "dtype": {"type": "DT_INT64"}}}, {"name": "unknown_426", "op": "Const", "attr": {"value": {"tensor": {"dtype": "DT_INT64", "tensorShape": {"dim": [{"size": "3"}]}}}, "dtype": {"type": "DT_INT64"}}}, {"name": "unknown_427", "op": "Const", "attr": {"value": {"tensor": {"dtype": "DT_INT64", "tensorShape": {"dim": [{"size": "3"}]}}}, "dtype": {"type": "DT_INT64"}}}, {"name": "StatefulPartitionedCall/model_17/tf.strided_slice_25/StridedSlice/strides", "op": "Const", "attr": {"value": {"tensor": {"dtype": "DT_INT64", "tensorShape": {"dim": [{"size": "3"}]}}}, "dtype": {"type": "DT_INT64"}}}, {"name": "unknown_422", "op": "Const", "attr": {"value": {"tensor": {"dtype": "DT_INT64", "tensorShape": {"dim": [{"size": "3"}]}}}, "dtype": {"type": "DT_INT64"}}}, {"name": "unknown_423", "op": "Const", "attr": {"value": {"tensor": {"dtype": "DT_INT64", "tensorShape": {"dim": [{"size": "3"}]}}}, "dtype": {"type": "DT_INT64"}}}, {"name": "StatefulPartitionedCall/model_17/tf.strided_slice_26/StridedSlice/strides", "op": "Const", "attr": {"value": {"tensor": {"dtype": "DT_INT64", "tensorShape": {"dim": [{"size": "3"}]}}}, "dtype": {"type": "DT_INT64"}}}, {"name": "ConstantFolding/StatefulPartitionedCall/model_17/tf.math.divide_2/truediv_recip", "op": "Const", "attr": {"value": {"tensor": {"dtype": "DT_FLOAT", "tensorShape": {}}}, "dtype": {"type": "DT_FLOAT"}}}, {"name": "unknown_424", "op": "Const", "attr": {"value": {"tensor": {"dtype": "DT_INT64", "tensorShape": {"dim": [{"size": "3"}]}}}, "dtype": {"type": "DT_INT64"}}}, {"name": "unknown_425", "op": "Const", "attr": {"value": {"tensor": {"dtype": "DT_INT64", "tensorShape": {"dim": [{"size": "3"}]}}}, "dtype": {"type": "DT_INT64"}}}, {"name": "StatefulPartitionedCall/model_17/tf.strided_slice_23/StridedSlice/strides", "op": "Const", "attr": {"value": {"tensor": {"dtype": "DT_INT64", "tensorShape": {"dim": [{"size": "3"}]}}}, "dtype": {"type": "DT_INT64"}}}, {"name": "unknown_418", "op": "Const", "attr": {"value": {"tensor": {"dtype": "DT_INT64", "tensorShape": {"dim": [{"size": "3"}]}}}, "dtype": {"type": "DT_INT64"}}}, {"name": "unknown_419", "op": "Const", "attr": {"value": {"tensor": {"dtype": "DT_INT64", "tensorShape": {"dim": [{"size": "3"}]}}}, "dtype": {"type": "DT_INT64"}}}, {"name": "StatefulPartitionedCall/model_17/tf.strided_slice_21/StridedSlice/strides", "op": "Const", "attr": {"value": {"tensor": {"dtype": "DT_INT64", "tensorShape": {"dim": [{"size": "3"}]}}}, "dtype": {"type": "DT_INT64"}}}, {"name": "StatefulPartitionedCall/model_17/tf.compat.v1.transpose_28/transpose/perm", "op": "Const", "attr": {"value": {"tensor": {"dtype": "DT_INT32", "tensorShape": {"dim": [{"size": "3"}]}}}, "dtype": {"type": "DT_INT32"}}}, {"name": "unknown_420", "op": "Const", "attr": {"value": {"tensor": {"dtype": "DT_INT64", "tensorShape": {"dim": [{"size": "3"}]}}}, "dtype": {"type": "DT_INT64"}}}, {"name": "unknown_421", "op": "Const", "attr": {"value": {"tensor": {"dtype": "DT_INT64", "tensorShape": {"dim": [{"size": "3"}]}}}, "dtype": {"type": "DT_INT64"}}}, {"name": "StatefulPartitionedCall/model_17/tf.strided_slice_24/StridedSlice/strides", "op": "Const", "attr": {"value": {"tensor": {"dtype": "DT_INT64", "tensorShape": {"dim": [{"size": "3"}]}}}, "dtype": {"type": "DT_INT64"}}}, {"name": "ConstantFolding/StatefulPartitionedCall/model_17/tf.math.divide_1/truediv_recip", "op": "Const", "attr": {"value": {"tensor": {"dtype": "DT_FLOAT", "tensorShape": {}}}, "dtype": {"type": "DT_FLOAT"}}}, {"name": "StatefulPartitionedCall/model_17/tf.concat_42/concat/axis", "op": "Const", "attr": {"value": {"tensor": {"dtype": "DT_INT32", "tensorShape": {}}}, "dtype": {"type": "DT_INT32"}}}, {"name": "ConstantFolding/StatefulPartitionedCall/model_17/tf.math.divide/truediv_recip", "op": "Const", "attr": {"value": {"tensor": {"dtype": "DT_FLOAT", "tensorShape": {}}}, "dtype": {"type": "DT_FLOAT"}}}, {"name": "unknown_416", "op": "Const", "attr": {"value": {"tensor": {"dtype": "DT_FLOAT", "tensorShape": {"dim": [{"size": "1"}, {"size": "2"}, {"size": "6300"}]}}}, "dtype": {"type": "DT_FLOAT"}}}, {"name": "unknown_417", "op": "Const", "attr": {"value": {"tensor": {"dtype": "DT_FLOAT", "tensorShape": {"dim": [{"size": "1"}, {"size": "2"}, {"size": "6300"}]}}}, "dtype": {"type": "DT_FLOAT"}}}, {"name": "StatefulPartitionedCall/model_17/tf.split/split/split_dim", "op": "Const", "attr": {"value": {"tensor": {"dtype": "DT_INT32", "tensorShape": {}}}, "dtype": {"type": "DT_INT32"}}}, {"name": "StatefulPartitionedCall/model_17/tf.strided_slice_19/StridedSlice/begin", "op": "Const", "attr": {"value": {"tensor": {"dtype": "DT_INT32", "tensorShape": {"dim": [{"size": "3"}]}}}, "dtype": {"type": "DT_INT32"}}}, {"name": "StatefulPartitionedCall/model_17/tf.strided_slice_19/StridedSlice/end", "op": "Const", "attr": {"value": {"tensor": {"dtype": "DT_INT32", "tensorShape": {"dim": [{"size": "3"}]}}}, "dtype": {"type": "DT_INT32"}}}, {"name": "StatefulPartitionedCall/model_17/tf.strided_slice_19/ones_like", "op": "Const", "attr": {"value": {"tensor": {"dtype": "DT_INT32", "tensorShape": {"dim": [{"size": "3"}]}}}, "dtype": {"type": "DT_INT32"}}}, {"name": "StatefulPartitionedCall/model_17/tf.reshape_11/Reshape/shape", "op": "Const", "attr": {"value": {"tensor": {"dtype": "DT_INT32", "tensorShape": {"dim": [{"size": "4"}]}}}, "dtype": {"type": "DT_INT32"}}}, {"name": "StatefulPartitionedCall/model_17/tf.compat.v1.transpose_19/transpose/perm", "op": "Const", "attr": {"value": {"tensor": {"dtype": "DT_INT32", "tensorShape": {"dim": [{"size": "4"}]}}}, "dtype": {"type": "DT_INT32"}}}, {"name": "StatefulPartitionedCall/model_17/tf.compat.v1.transpose_20/transpose/perm", "op": "Const", "attr": {"value": {"tensor": {"dtype": "DT_INT32", "tensorShape": {"dim": [{"size": "4"}]}}}, "dtype": {"type": "DT_INT32"}}}, {"name": "unknown_415", "op": "Const", "attr": {"value": {"tensor": {"dtype": "DT_FLOAT", "tensorShape": {"dim": [{"size": "1"}, {"size": "1"}, {"size": "16"}, {"size": "1"}]}}}, "dtype": {"type": "DT_FLOAT"}}}, {"name": "StatefulPartitionedCall/model_17/tf.compat.v1.transpose_25/transpose/perm", "op": "Const", "attr": {"value": {"tensor": {"dtype": "DT_INT32", "tensorShape": {"dim": [{"size": "4"}]}}}, "dtype": {"type": "DT_INT32"}}}, {"name": "StatefulPartitionedCall/model_17/tf.reshape_14/Reshape/shape", "op": "Const", "attr": {"value": {"tensor": {"dtype": "DT_INT32", "tensorShape": {"dim": [{"size": "3"}]}}}, "dtype": {"type": "DT_INT32"}}}, {"name": "StatefulPartitionedCall/model_17/tf.concat_35/concat/axis", "op": "Const", "attr": {"value": {"tensor": {"dtype": "DT_INT32", "tensorShape": {}}}, "dtype": {"type": "DT_INT32"}}}, {"name": "StatefulPartitionedCall/model_17/tf.math.multiply_635/Mul/y", "op": "Const", "attr": {"value": {"tensor": {"dtype": "DT_FLOAT", "tensorShape": {"dim": [{"size": "1"}, {"size": "1"}, {"size": "6300"}]}}}, "dtype": {"type": "DT_FLOAT"}}}, {"name": "unknown_384", "op": "Const", "attr": {"value": {"tensor": {"dtype": "DT_FLOAT", "tensorShape": {"dim": [{"size": "3"}, {"size": "3"}, {"size": "32"}, {"size": "64"}]}}}, "dtype": {"type": "DT_FLOAT"}}}, {"name": "unknown_390", "op": "Const", "attr": {"value": {"tensor": {"dtype": "DT_FLOAT", "tensorShape": {"dim": [{"size": "64"}]}}}, "dtype": {"type": "DT_FLOAT"}}}, {"name": "StatefulPartitionedCall/model_17/tf.nn.convolution_124/convolution/ReadVariableOp", "op": "Const", "attr": {"value": {"tensor": {"dtype": "DT_FLOAT", "tensorShape": {"dim": [{"size": "3"}, {"size": "3"}, {"size": "16"}, {"size": "64"}]}}}, "dtype": {"type": "DT_FLOAT"}}}, {"name": "unknown_402", "op": "Const", "attr": {"value": {"tensor": {"dtype": "DT_FLOAT", "tensorShape": {"dim": [{"size": "64"}]}}}, "dtype": {"type": "DT_FLOAT"}}}, {"name": "StatefulPartitionedCall/model_17/tf.nn.convolution_127/convolution/ReadVariableOp", "op": "Const", "attr": {"value": {"tensor": {"dtype": "DT_FLOAT", "tensorShape": {"dim": [{"size": "1"}, {"size": "1"}, {"size": "16"}, {"size": "64"}]}}}, "dtype": {"type": "DT_FLOAT"}}}, {"name": "unknown_413", "op": "Const", "attr": {"value": {"tensor": {"dtype": "DT_FLOAT", "tensorShape": {"dim": [{"size": "64"}]}}}, "dtype": {"type": "DT_FLOAT"}}}, {"name": "unknown_383", "op": "Const", "attr": {"value": {"tensor": {"dtype": "DT_FLOAT", "tensorShape": {"dim": [{"size": "3"}, {"size": "3"}, {"size": "32"}, {"size": "32"}]}}}, "dtype": {"type": "DT_FLOAT"}}}, {"name": "unknown_389", "op": "Const", "attr": {"value": {"tensor": {"dtype": "DT_FLOAT", "tensorShape": {"dim": [{"size": "32"}]}}}, "dtype": {"type": "DT_FLOAT"}}}, {"name": "unknown_395", "op": "Const", "attr": {"value": {"tensor": {"dtype": "DT_FLOAT", "tensorShape": {"dim": [{"size": "3"}, {"size": "3"}, {"size": "32"}, {"size": "32"}]}}}, "dtype": {"type": "DT_FLOAT"}}}, {"name": "unknown_401", "op": "Const", "attr": {"value": {"tensor": {"dtype": "DT_FLOAT", "tensorShape": {"dim": [{"size": "32"}]}}}, "dtype": {"type": "DT_FLOAT"}}}, {"name": "unknown_407", "op": "Const", "attr": {"value": {"tensor": {"dtype": "DT_FLOAT", "tensorShape": {"dim": [{"size": "1"}, {"size": "1"}, {"size": "32"}, {"size": "15"}]}}}, "dtype": {"type": "DT_FLOAT"}}}, {"name": "unknown_414", "op": "Const", "attr": {"value": {"tensor": {"dtype": "DT_FLOAT", "tensorShape": {"dim": [{"size": "15"}]}}}, "dtype": {"type": "DT_FLOAT"}}}, {"name": "StatefulPartitionedCall/model_17/tf.concat_21/concat/axis", "op": "Const", "attr": {"value": {"tensor": {"dtype": "DT_INT32", "tensorShape": {}}}, "dtype": {"type": "DT_INT32"}}}, {"name": "StatefulPartitionedCall/model_17/tf.compat.v1.transpose_2/transpose/perm", "op": "Const", "attr": {"value": {"tensor": {"dtype": "DT_INT32", "tensorShape": {"dim": [{"size": "4"}]}}}, "dtype": {"type": "DT_INT32"}}}, {"name": "StatefulPartitionedCall/model_17/tf.reshape_2/Reshape/shape", "op": "Const", "attr": {"value": {"tensor": {"dtype": "DT_INT32", "tensorShape": {"dim": [{"size": "3"}]}}}, "dtype": {"type": "DT_INT32"}}}, {"name": "unknown_382", "op": "Const", "attr": {"value": {"tensor": {"dtype": "DT_FLOAT", "tensorShape": {"dim": [{"size": "3"}, {"size": "3"}, {"size": "48"}, {"size": "64"}]}}}, "dtype": {"type": "DT_FLOAT"}}}, {"name": "unknown_388", "op": "Const", "attr": {"value": {"tensor": {"dtype": "DT_FLOAT", "tensorShape": {"dim": [{"size": "64"}]}}}, "dtype": {"type": "DT_FLOAT"}}}, {"name": "StatefulPartitionedCall/model_17/tf.nn.convolution_153/convolution/ReadVariableOp", "op": "Const", "attr": {"value": {"tensor": {"dtype": "DT_FLOAT", "tensorShape": {"dim": [{"size": "3"}, {"size": "3"}, {"size": "16"}, {"size": "64"}]}}}, "dtype": {"type": "DT_FLOAT"}}}, {"name": "unknown_400", "op": "Const", "attr": {"value": {"tensor": {"dtype": "DT_FLOAT", "tensorShape": {"dim": [{"size": "64"}]}}}, "dtype": {"type": "DT_FLOAT"}}}, {"name": "StatefulPartitionedCall/model_17/tf.nn.convolution_156/convolution/ReadVariableOp", "op": "Const", "attr": {"value": {"tensor": {"dtype": "DT_FLOAT", "tensorShape": {"dim": [{"size": "1"}, {"size": "1"}, {"size": "16"}, {"size": "64"}]}}}, "dtype": {"type": "DT_FLOAT"}}}, {"name": "unknown_411", "op": "Const", "attr": {"value": {"tensor": {"dtype": "DT_FLOAT", "tensorShape": {"dim": [{"size": "64"}]}}}, "dtype": {"type": "DT_FLOAT"}}}, {"name": "unknown_381", "op": "Const", "attr": {"value": {"tensor": {"dtype": "DT_FLOAT", "tensorShape": {"dim": [{"size": "3"}, {"size": "3"}, {"size": "48"}, {"size": "32"}]}}}, "dtype": {"type": "DT_FLOAT"}}}, {"name": "unknown_387", "op": "Const", "attr": {"value": {"tensor": {"dtype": "DT_FLOAT", "tensorShape": {"dim": [{"size": "32"}]}}}, "dtype": {"type": "DT_FLOAT"}}}, {"name": "unknown_393", "op": "Const", "attr": {"value": {"tensor": {"dtype": "DT_FLOAT", "tensorShape": {"dim": [{"size": "3"}, {"size": "3"}, {"size": "32"}, {"size": "32"}]}}}, "dtype": {"type": "DT_FLOAT"}}}, {"name": "unknown_399", "op": "Const", "attr": {"value": {"tensor": {"dtype": "DT_FLOAT", "tensorShape": {"dim": [{"size": "32"}]}}}, "dtype": {"type": "DT_FLOAT"}}}, {"name": "unknown_405", "op": "Const", "attr": {"value": {"tensor": {"dtype": "DT_FLOAT", "tensorShape": {"dim": [{"size": "1"}, {"size": "1"}, {"size": "32"}, {"size": "15"}]}}}, "dtype": {"type": "DT_FLOAT"}}}, {"name": "unknown_412", "op": "Const", "attr": {"value": {"tensor": {"dtype": "DT_FLOAT", "tensorShape": {"dim": [{"size": "15"}]}}}, "dtype": {"type": "DT_FLOAT"}}}, {"name": "StatefulPartitionedCall/model_17/tf.concat_26/concat/axis", "op": "Const", "attr": {"value": {"tensor": {"dtype": "DT_INT32", "tensorShape": {}}}, "dtype": {"type": "DT_INT32"}}}, {"name": "StatefulPartitionedCall/model_17/tf.compat.v1.transpose_7/transpose/perm", "op": "Const", "attr": {"value": {"tensor": {"dtype": "DT_INT32", "tensorShape": {"dim": [{"size": "4"}]}}}, "dtype": {"type": "DT_INT32"}}}, {"name": "StatefulPartitionedCall/model_17/tf.reshape_5/Reshape/shape", "op": "Const", "attr": {"value": {"tensor": {"dtype": "DT_INT32", "tensorShape": {"dim": [{"size": "3"}]}}}, "dtype": {"type": "DT_INT32"}}}, {"name": "unknown_380", "op": "Const", "attr": {"value": {"tensor": {"dtype": "DT_FLOAT", "tensorShape": {"dim": [{"size": "3"}, {"size": "3"}, {"size": "64"}, {"size": "64"}]}}}, "dtype": {"type": "DT_FLOAT"}}}, {"name": "unknown_386", "op": "Const", "attr": {"value": {"tensor": {"dtype": "DT_FLOAT", "tensorShape": {"dim": [{"size": "64"}]}}}, "dtype": {"type": "DT_FLOAT"}}}, {"name": "StatefulPartitionedCall/model_17/tf.nn.convolution_181/convolution/ReadVariableOp", "op": "Const", "attr": {"value": {"tensor": {"dtype": "DT_FLOAT", "tensorShape": {"dim": [{"size": "3"}, {"size": "3"}, {"size": "16"}, {"size": "64"}]}}}, "dtype": {"type": "DT_FLOAT"}}}, {"name": "unknown_398", "op": "Const", "attr": {"value": {"tensor": {"dtype": "DT_FLOAT", "tensorShape": {"dim": [{"size": "64"}]}}}, "dtype": {"type": "DT_FLOAT"}}}, {"name": "StatefulPartitionedCall/model_17/tf.nn.convolution_183/convolution/ReadVariableOp", "op": "Const", "attr": {"value": {"tensor": {"dtype": "DT_FLOAT", "tensorShape": {"dim": [{"size": "1"}, {"size": "1"}, {"size": "16"}, {"size": "64"}]}}}, "dtype": {"type": "DT_FLOAT"}}}, {"name": "unknown_409", "op": "Const", "attr": {"value": {"tensor": {"dtype": "DT_FLOAT", "tensorShape": {"dim": [{"size": "64"}]}}}, "dtype": {"type": "DT_FLOAT"}}}, {"name": "unknown_375", "op": "Const", "attr": {"value": {"tensor": {"dtype": "DT_INT64", "tensorShape": {"dim": [{"size": "4"}]}}}, "dtype": {"type": "DT_INT64"}}}, {"name": "unknown_376", "op": "Const", "attr": {"value": {"tensor": {"dtype": "DT_INT64", "tensorShape": {"dim": [{"size": "4"}]}}}, "dtype": {"type": "DT_INT64"}}}, {"name": "StatefulPartitionedCall/model_17/tf.strided_slice_17/ones_like", "op": "Const", "attr": {"value": {"tensor": {"dtype": "DT_INT64", "tensorShape": {"dim": [{"size": "4"}]}}}, "dtype": {"type": "DT_INT64"}}}, {"name": "unknown_355", "op": "Const", "attr": {"value": {"tensor": {"dtype": "DT_FLOAT", "tensorShape": {"dim": [{"size": "1"}, {"size": "1"}, {"size": "32"}, {"size": "16"}]}}}, "dtype": {"type": "DT_FLOAT"}}}, {"name": "unknown_356", "op": "Const", "attr": {"value": {"tensor": {"dtype": "DT_FLOAT", "tensorShape": {"dim": [{"size": "16"}]}}}, "dtype": {"type": "DT_FLOAT"}}}, {"name": "unknown_357", "op": "Const", "attr": {"value": {"tensor": {"dtype": "DT_FLOAT", "tensorShape": {"dim": [{"size": "3"}, {"size": "3"}, {"size": "16"}, {"size": "16"}]}}}, "dtype": {"type": "DT_FLOAT"}}}, {"name": "unknown_358", "op": "Const", "attr": {"value": {"tensor": {"dtype": "DT_FLOAT", "tensorShape": {"dim": [{"size": "16"}]}}}, "dtype": {"type": "DT_FLOAT"}}}, {"name": "unknown_359", "op": "Const", "attr": {"value": {"tensor": {"dtype": "DT_FLOAT", "tensorShape": {"dim": [{"size": "3"}, {"size": "3"}, {"size": "16"}, {"size": "16"}]}}}, "dtype": {"type": "DT_FLOAT"}}}, {"name": "unknown_360", "op": "Const", "attr": {"value": {"tensor": {"dtype": "DT_FLOAT", "tensorShape": {"dim": [{"size": "16"}]}}}, "dtype": {"type": "DT_FLOAT"}}}, {"name": "unknown_361", "op": "Const", "attr": {"value": {"tensor": {"dtype": "DT_FLOAT", "tensorShape": {"dim": [{"size": "3"}, {"size": "3"}, {"size": "16"}, {"size": "16"}]}}}, "dtype": {"type": "DT_FLOAT"}}}, {"name": "unknown_362", "op": "Const", "attr": {"value": {"tensor": {"dtype": "DT_FLOAT", "tensorShape": {"dim": [{"size": "16"}]}}}, "dtype": {"type": "DT_FLOAT"}}}, {"name": "unknown_363", "op": "Const", "attr": {"value": {"tensor": {"dtype": "DT_FLOAT", "tensorShape": {"dim": [{"size": "3"}, {"size": "3"}, {"size": "16"}, {"size": "16"}]}}}, "dtype": {"type": "DT_FLOAT"}}}, {"name": "unknown_364", "op": "Const", "attr": {"value": {"tensor": {"dtype": "DT_FLOAT", "tensorShape": {"dim": [{"size": "16"}]}}}, "dtype": {"type": "DT_FLOAT"}}}, {"name": "unknown_365", "op": "Const", "attr": {"value": {"tensor": {"dtype": "DT_FLOAT", "tensorShape": {"dim": [{"size": "3"}, {"size": "3"}, {"size": "16"}, {"size": "16"}]}}}, "dtype": {"type": "DT_FLOAT"}}}, {"name": "unknown_366", "op": "Const", "attr": {"value": {"tensor": {"dtype": "DT_FLOAT", "tensorShape": {"dim": [{"size": "16"}]}}}, "dtype": {"type": "DT_FLOAT"}}}, {"name": "unknown_367", "op": "Const", "attr": {"value": {"tensor": {"dtype": "DT_FLOAT", "tensorShape": {"dim": [{"size": "3"}, {"size": "3"}, {"size": "16"}, {"size": "16"}]}}}, "dtype": {"type": "DT_FLOAT"}}}, {"name": "unknown_369", "op": "Const", "attr": {"value": {"tensor": {"dtype": "DT_FLOAT", "tensorShape": {"dim": [{"size": "16"}]}}}, "dtype": {"type": "DT_FLOAT"}}}, {"name": "unknown_335", "op": "Const", "attr": {"value": {"tensor": {"dtype": "DT_FLOAT", "tensorShape": {"dim": [{"size": "1"}, {"size": "1"}, {"size": "32"}, {"size": "16"}]}}}, "dtype": {"type": "DT_FLOAT"}}}, {"name": "unknown_336", "op": "Const", "attr": {"value": {"tensor": {"dtype": "DT_FLOAT", "tensorShape": {"dim": [{"size": "16"}]}}}, "dtype": {"type": "DT_FLOAT"}}}, {"name": "unknown_337", "op": "Const", "attr": {"value": {"tensor": {"dtype": "DT_FLOAT", "tensorShape": {"dim": [{"size": "3"}, {"size": "3"}, {"size": "16"}, {"size": "16"}]}}}, "dtype": {"type": "DT_FLOAT"}}}, {"name": "unknown_338", "op": "Const", "attr": {"value": {"tensor": {"dtype": "DT_FLOAT", "tensorShape": {"dim": [{"size": "16"}]}}}, "dtype": {"type": "DT_FLOAT"}}}, {"name": "unknown_339", "op": "Const", "attr": {"value": {"tensor": {"dtype": "DT_FLOAT", "tensorShape": {"dim": [{"size": "3"}, {"size": "3"}, {"size": "16"}, {"size": "16"}]}}}, "dtype": {"type": "DT_FLOAT"}}}, {"name": "unknown_340", "op": "Const", "attr": {"value": {"tensor": {"dtype": "DT_FLOAT", "tensorShape": {"dim": [{"size": "16"}]}}}, "dtype": {"type": "DT_FLOAT"}}}, {"name": "unknown_341", "op": "Const", "attr": {"value": {"tensor": {"dtype": "DT_FLOAT", "tensorShape": {"dim": [{"size": "3"}, {"size": "3"}, {"size": "16"}, {"size": "16"}]}}}, "dtype": {"type": "DT_FLOAT"}}}, {"name": "unknown_342", "op": "Const", "attr": {"value": {"tensor": {"dtype": "DT_FLOAT", "tensorShape": {"dim": [{"size": "16"}]}}}, "dtype": {"type": "DT_FLOAT"}}}, {"name": "unknown_343", "op": "Const", "attr": {"value": {"tensor": {"dtype": "DT_FLOAT", "tensorShape": {"dim": [{"size": "3"}, {"size": "3"}, {"size": "16"}, {"size": "16"}]}}}, "dtype": {"type": "DT_FLOAT"}}}, {"name": "unknown_344", "op": "Const", "attr": {"value": {"tensor": {"dtype": "DT_FLOAT", "tensorShape": {"dim": [{"size": "16"}]}}}, "dtype": {"type": "DT_FLOAT"}}}, {"name": "unknown_345", "op": "Const", "attr": {"value": {"tensor": {"dtype": "DT_FLOAT", "tensorShape": {"dim": [{"size": "3"}, {"size": "3"}, {"size": "16"}, {"size": "16"}]}}}, "dtype": {"type": "DT_FLOAT"}}}, {"name": "unknown_346", "op": "Const", "attr": {"value": {"tensor": {"dtype": "DT_FLOAT", "tensorShape": {"dim": [{"size": "16"}]}}}, "dtype": {"type": "DT_FLOAT"}}}, {"name": "unknown_347", "op": "Const", "attr": {"value": {"tensor": {"dtype": "DT_FLOAT", "tensorShape": {"dim": [{"size": "3"}, {"size": "3"}, {"size": "16"}, {"size": "16"}]}}}, "dtype": {"type": "DT_FLOAT"}}}, {"name": "unknown_349", "op": "Const", "attr": {"value": {"tensor": {"dtype": "DT_FLOAT", "tensorShape": {"dim": [{"size": "16"}]}}}, "dtype": {"type": "DT_FLOAT"}}}, {"name": "unknown_324", "op": "Const", "attr": {"value": {"tensor": {"dtype": "DT_INT64", "tensorShape": {"dim": [{"size": "4"}]}}}, "dtype": {"type": "DT_INT64"}}}, {"name": "unknown_325", "op": "Const", "attr": {"value": {"tensor": {"dtype": "DT_INT64", "tensorShape": {"dim": [{"size": "4"}]}}}, "dtype": {"type": "DT_INT64"}}}, {"name": "StatefulPartitionedCall/model_17/tf.strided_slice_15/ones_like", "op": "Const", "attr": {"value": {"tensor": {"dtype": "DT_INT64", "tensorShape": {"dim": [{"size": "4"}]}}}, "dtype": {"type": "DT_INT64"}}}, {"name": "unknown_304", "op": "Const", "attr": {"value": {"tensor": {"dtype": "DT_FLOAT", "tensorShape": {"dim": [{"size": "1"}, {"size": "1"}, {"size": "24"}, {"size": "12"}]}}}, "dtype": {"type": "DT_FLOAT"}}}, {"name": "unknown_305", "op": "Const", "attr": {"value": {"tensor": {"dtype": "DT_FLOAT", "tensorShape": {"dim": [{"size": "12"}]}}}, "dtype": {"type": "DT_FLOAT"}}}, {"name": "unknown_306", "op": "Const", "attr": {"value": {"tensor": {"dtype": "DT_FLOAT", "tensorShape": {"dim": [{"size": "3"}, {"size": "3"}, {"size": "12"}, {"size": "12"}]}}}, "dtype": {"type": "DT_FLOAT"}}}, {"name": "unknown_307", "op": "Const", "attr": {"value": {"tensor": {"dtype": "DT_FLOAT", "tensorShape": {"dim": [{"size": "12"}]}}}, "dtype": {"type": "DT_FLOAT"}}}, {"name": "unknown_308", "op": "Const", "attr": {"value": {"tensor": {"dtype": "DT_FLOAT", "tensorShape": {"dim": [{"size": "3"}, {"size": "3"}, {"size": "12"}, {"size": "12"}]}}}, "dtype": {"type": "DT_FLOAT"}}}, {"name": "unknown_309", "op": "Const", "attr": {"value": {"tensor": {"dtype": "DT_FLOAT", "tensorShape": {"dim": [{"size": "12"}]}}}, "dtype": {"type": "DT_FLOAT"}}}, {"name": "unknown_310", "op": "Const", "attr": {"value": {"tensor": {"dtype": "DT_FLOAT", "tensorShape": {"dim": [{"size": "3"}, {"size": "3"}, {"size": "12"}, {"size": "12"}]}}}, "dtype": {"type": "DT_FLOAT"}}}, {"name": "unknown_311", "op": "Const", "attr": {"value": {"tensor": {"dtype": "DT_FLOAT", "tensorShape": {"dim": [{"size": "12"}]}}}, "dtype": {"type": "DT_FLOAT"}}}, {"name": "unknown_312", "op": "Const", "attr": {"value": {"tensor": {"dtype": "DT_FLOAT", "tensorShape": {"dim": [{"size": "3"}, {"size": "3"}, {"size": "12"}, {"size": "12"}]}}}, "dtype": {"type": "DT_FLOAT"}}}, {"name": "unknown_313", "op": "Const", "attr": {"value": {"tensor": {"dtype": "DT_FLOAT", "tensorShape": {"dim": [{"size": "12"}]}}}, "dtype": {"type": "DT_FLOAT"}}}, {"name": "unknown_314", "op": "Const", "attr": {"value": {"tensor": {"dtype": "DT_FLOAT", "tensorShape": {"dim": [{"size": "3"}, {"size": "3"}, {"size": "12"}, {"size": "12"}]}}}, "dtype": {"type": "DT_FLOAT"}}}, {"name": "unknown_315", "op": "Const", "attr": {"value": {"tensor": {"dtype": "DT_FLOAT", "tensorShape": {"dim": [{"size": "12"}]}}}, "dtype": {"type": "DT_FLOAT"}}}, {"name": "unknown_316", "op": "Const", "attr": {"value": {"tensor": {"dtype": "DT_FLOAT", "tensorShape": {"dim": [{"size": "3"}, {"size": "3"}, {"size": "12"}, {"size": "12"}]}}}, "dtype": {"type": "DT_FLOAT"}}}, {"name": "unknown_318", "op": "Const", "attr": {"value": {"tensor": {"dtype": "DT_FLOAT", "tensorShape": {"dim": [{"size": "12"}]}}}, "dtype": {"type": "DT_FLOAT"}}}, {"name": "unknown_284", "op": "Const", "attr": {"value": {"tensor": {"dtype": "DT_FLOAT", "tensorShape": {"dim": [{"size": "1"}, {"size": "1"}, {"size": "24"}, {"size": "12"}]}}}, "dtype": {"type": "DT_FLOAT"}}}, {"name": "unknown_285", "op": "Const", "attr": {"value": {"tensor": {"dtype": "DT_FLOAT", "tensorShape": {"dim": [{"size": "12"}]}}}, "dtype": {"type": "DT_FLOAT"}}}, {"name": "unknown_286", "op": "Const", "attr": {"value": {"tensor": {"dtype": "DT_FLOAT", "tensorShape": {"dim": [{"size": "3"}, {"size": "3"}, {"size": "12"}, {"size": "12"}]}}}, "dtype": {"type": "DT_FLOAT"}}}, {"name": "unknown_287", "op": "Const", "attr": {"value": {"tensor": {"dtype": "DT_FLOAT", "tensorShape": {"dim": [{"size": "12"}]}}}, "dtype": {"type": "DT_FLOAT"}}}, {"name": "unknown_288", "op": "Const", "attr": {"value": {"tensor": {"dtype": "DT_FLOAT", "tensorShape": {"dim": [{"size": "3"}, {"size": "3"}, {"size": "12"}, {"size": "12"}]}}}, "dtype": {"type": "DT_FLOAT"}}}, {"name": "unknown_289", "op": "Const", "attr": {"value": {"tensor": {"dtype": "DT_FLOAT", "tensorShape": {"dim": [{"size": "12"}]}}}, "dtype": {"type": "DT_FLOAT"}}}, {"name": "unknown_290", "op": "Const", "attr": {"value": {"tensor": {"dtype": "DT_FLOAT", "tensorShape": {"dim": [{"size": "3"}, {"size": "3"}, {"size": "12"}, {"size": "12"}]}}}, "dtype": {"type": "DT_FLOAT"}}}, {"name": "unknown_291", "op": "Const", "attr": {"value": {"tensor": {"dtype": "DT_FLOAT", "tensorShape": {"dim": [{"size": "12"}]}}}, "dtype": {"type": "DT_FLOAT"}}}, {"name": "unknown_292", "op": "Const", "attr": {"value": {"tensor": {"dtype": "DT_FLOAT", "tensorShape": {"dim": [{"size": "3"}, {"size": "3"}, {"size": "12"}, {"size": "12"}]}}}, "dtype": {"type": "DT_FLOAT"}}}, {"name": "unknown_293", "op": "Const", "attr": {"value": {"tensor": {"dtype": "DT_FLOAT", "tensorShape": {"dim": [{"size": "12"}]}}}, "dtype": {"type": "DT_FLOAT"}}}, {"name": "unknown_294", "op": "Const", "attr": {"value": {"tensor": {"dtype": "DT_FLOAT", "tensorShape": {"dim": [{"size": "3"}, {"size": "3"}, {"size": "12"}, {"size": "12"}]}}}, "dtype": {"type": "DT_FLOAT"}}}, {"name": "unknown_295", "op": "Const", "attr": {"value": {"tensor": {"dtype": "DT_FLOAT", "tensorShape": {"dim": [{"size": "12"}]}}}, "dtype": {"type": "DT_FLOAT"}}}, {"name": "unknown_296", "op": "Const", "attr": {"value": {"tensor": {"dtype": "DT_FLOAT", "tensorShape": {"dim": [{"size": "3"}, {"size": "3"}, {"size": "12"}, {"size": "12"}]}}}, "dtype": {"type": "DT_FLOAT"}}}, {"name": "unknown_298", "op": "Const", "attr": {"value": {"tensor": {"dtype": "DT_FLOAT", "tensorShape": {"dim": [{"size": "12"}]}}}, "dtype": {"type": "DT_FLOAT"}}}, {"name": "unknown_273", "op": "Const", "attr": {"value": {"tensor": {"dtype": "DT_INT64", "tensorShape": {"dim": [{"size": "4"}]}}}, "dtype": {"type": "DT_INT64"}}}, {"name": "unknown_274", "op": "Const", "attr": {"value": {"tensor": {"dtype": "DT_INT64", "tensorShape": {"dim": [{"size": "4"}]}}}, "dtype": {"type": "DT_INT64"}}}, {"name": "StatefulPartitionedCall/model_17/tf.strided_slice_13/ones_like", "op": "Const", "attr": {"value": {"tensor": {"dtype": "DT_INT64", "tensorShape": {"dim": [{"size": "4"}]}}}, "dtype": {"type": "DT_INT64"}}}, {"name": "unknown_253", "op": "Const", "attr": {"value": {"tensor": {"dtype": "DT_FLOAT", "tensorShape": {"dim": [{"size": "1"}, {"size": "1"}, {"size": "16"}, {"size": "8"}]}}}, "dtype": {"type": "DT_FLOAT"}}}, {"name": "unknown_254", "op": "Const", "attr": {"value": {"tensor": {"dtype": "DT_FLOAT", "tensorShape": {"dim": [{"size": "8"}]}}}, "dtype": {"type": "DT_FLOAT"}}}, {"name": "unknown_255", "op": "Const", "attr": {"value": {"tensor": {"dtype": "DT_FLOAT", "tensorShape": {"dim": [{"size": "3"}, {"size": "3"}, {"size": "8"}, {"size": "8"}]}}}, "dtype": {"type": "DT_FLOAT"}}}, {"name": "unknown_256", "op": "Const", "attr": {"value": {"tensor": {"dtype": "DT_FLOAT", "tensorShape": {"dim": [{"size": "8"}]}}}, "dtype": {"type": "DT_FLOAT"}}}, {"name": "unknown_257", "op": "Const", "attr": {"value": {"tensor": {"dtype": "DT_FLOAT", "tensorShape": {"dim": [{"size": "3"}, {"size": "3"}, {"size": "8"}, {"size": "8"}]}}}, "dtype": {"type": "DT_FLOAT"}}}, {"name": "unknown_258", "op": "Const", "attr": {"value": {"tensor": {"dtype": "DT_FLOAT", "tensorShape": {"dim": [{"size": "8"}]}}}, "dtype": {"type": "DT_FLOAT"}}}, {"name": "unknown_259", "op": "Const", "attr": {"value": {"tensor": {"dtype": "DT_FLOAT", "tensorShape": {"dim": [{"size": "3"}, {"size": "3"}, {"size": "8"}, {"size": "8"}]}}}, "dtype": {"type": "DT_FLOAT"}}}, {"name": "unknown_260", "op": "Const", "attr": {"value": {"tensor": {"dtype": "DT_FLOAT", "tensorShape": {"dim": [{"size": "8"}]}}}, "dtype": {"type": "DT_FLOAT"}}}, {"name": "unknown_261", "op": "Const", "attr": {"value": {"tensor": {"dtype": "DT_FLOAT", "tensorShape": {"dim": [{"size": "3"}, {"size": "3"}, {"size": "8"}, {"size": "8"}]}}}, "dtype": {"type": "DT_FLOAT"}}}, {"name": "unknown_262", "op": "Const", "attr": {"value": {"tensor": {"dtype": "DT_FLOAT", "tensorShape": {"dim": [{"size": "8"}]}}}, "dtype": {"type": "DT_FLOAT"}}}, {"name": "unknown_263", "op": "Const", "attr": {"value": {"tensor": {"dtype": "DT_FLOAT", "tensorShape": {"dim": [{"size": "3"}, {"size": "3"}, {"size": "8"}, {"size": "8"}]}}}, "dtype": {"type": "DT_FLOAT"}}}, {"name": "unknown_264", "op": "Const", "attr": {"value": {"tensor": {"dtype": "DT_FLOAT", "tensorShape": {"dim": [{"size": "8"}]}}}, "dtype": {"type": "DT_FLOAT"}}}, {"name": "unknown_265", "op": "Const", "attr": {"value": {"tensor": {"dtype": "DT_FLOAT", "tensorShape": {"dim": [{"size": "3"}, {"size": "3"}, {"size": "8"}, {"size": "8"}]}}}, "dtype": {"type": "DT_FLOAT"}}}, {"name": "unknown_267", "op": "Const", "attr": {"value": {"tensor": {"dtype": "DT_FLOAT", "tensorShape": {"dim": [{"size": "8"}]}}}, "dtype": {"type": "DT_FLOAT"}}}, {"name": "unknown_233", "op": "Const", "attr": {"value": {"tensor": {"dtype": "DT_FLOAT", "tensorShape": {"dim": [{"size": "1"}, {"size": "1"}, {"size": "16"}, {"size": "8"}]}}}, "dtype": {"type": "DT_FLOAT"}}}, {"name": "unknown_234", "op": "Const", "attr": {"value": {"tensor": {"dtype": "DT_FLOAT", "tensorShape": {"dim": [{"size": "8"}]}}}, "dtype": {"type": "DT_FLOAT"}}}, {"name": "unknown_235", "op": "Const", "attr": {"value": {"tensor": {"dtype": "DT_FLOAT", "tensorShape": {"dim": [{"size": "3"}, {"size": "3"}, {"size": "8"}, {"size": "8"}]}}}, "dtype": {"type": "DT_FLOAT"}}}, {"name": "unknown_236", "op": "Const", "attr": {"value": {"tensor": {"dtype": "DT_FLOAT", "tensorShape": {"dim": [{"size": "8"}]}}}, "dtype": {"type": "DT_FLOAT"}}}, {"name": "unknown_237", "op": "Const", "attr": {"value": {"tensor": {"dtype": "DT_FLOAT", "tensorShape": {"dim": [{"size": "3"}, {"size": "3"}, {"size": "8"}, {"size": "8"}]}}}, "dtype": {"type": "DT_FLOAT"}}}, {"name": "unknown_238", "op": "Const", "attr": {"value": {"tensor": {"dtype": "DT_FLOAT", "tensorShape": {"dim": [{"size": "8"}]}}}, "dtype": {"type": "DT_FLOAT"}}}, {"name": "unknown_239", "op": "Const", "attr": {"value": {"tensor": {"dtype": "DT_FLOAT", "tensorShape": {"dim": [{"size": "3"}, {"size": "3"}, {"size": "8"}, {"size": "8"}]}}}, "dtype": {"type": "DT_FLOAT"}}}, {"name": "unknown_240", "op": "Const", "attr": {"value": {"tensor": {"dtype": "DT_FLOAT", "tensorShape": {"dim": [{"size": "8"}]}}}, "dtype": {"type": "DT_FLOAT"}}}, {"name": "unknown_241", "op": "Const", "attr": {"value": {"tensor": {"dtype": "DT_FLOAT", "tensorShape": {"dim": [{"size": "3"}, {"size": "3"}, {"size": "8"}, {"size": "8"}]}}}, "dtype": {"type": "DT_FLOAT"}}}, {"name": "unknown_242", "op": "Const", "attr": {"value": {"tensor": {"dtype": "DT_FLOAT", "tensorShape": {"dim": [{"size": "8"}]}}}, "dtype": {"type": "DT_FLOAT"}}}, {"name": "unknown_243", "op": "Const", "attr": {"value": {"tensor": {"dtype": "DT_FLOAT", "tensorShape": {"dim": [{"size": "3"}, {"size": "3"}, {"size": "8"}, {"size": "8"}]}}}, "dtype": {"type": "DT_FLOAT"}}}, {"name": "unknown_244", "op": "Const", "attr": {"value": {"tensor": {"dtype": "DT_FLOAT", "tensorShape": {"dim": [{"size": "8"}]}}}, "dtype": {"type": "DT_FLOAT"}}}, {"name": "unknown_245", "op": "Const", "attr": {"value": {"tensor": {"dtype": "DT_FLOAT", "tensorShape": {"dim": [{"size": "3"}, {"size": "3"}, {"size": "8"}, {"size": "8"}]}}}, "dtype": {"type": "DT_FLOAT"}}}, {"name": "unknown_247", "op": "Const", "attr": {"value": {"tensor": {"dtype": "DT_FLOAT", "tensorShape": {"dim": [{"size": "8"}]}}}, "dtype": {"type": "DT_FLOAT"}}}, {"name": "StatefulPartitionedCall/model_17/tf.compat.v1.image.resize_nearest_neighbor_2/ResizeNearestNeighbor/size", "op": "Const", "attr": {"value": {"tensor": {"dtype": "DT_INT32", "tensorShape": {"dim": [{"size": "2"}]}}}, "dtype": {"type": "DT_INT32"}}}, {"name": "StatefulPartitionedCall/model_17/tf.concat_16/concat/axis", "op": "Const", "attr": {"value": {"tensor": {"dtype": "DT_INT32", "tensorShape": {}}}, "dtype": {"type": "DT_INT32"}}}, {"name": "unknown_229", "op": "Const", "attr": {"value": {"tensor": {"dtype": "DT_FLOAT", "tensorShape": {"dim": [{"size": "1"}, {"size": "1"}, {"size": "80"}, {"size": "32"}]}}}, "dtype": {"type": "DT_FLOAT"}}}, {"name": "unknown_230", "op": "Const", "attr": {"value": {"tensor": {"dtype": "DT_FLOAT", "tensorShape": {"dim": [{"size": "32"}]}}}, "dtype": {"type": "DT_FLOAT"}}}, {"name": "unknown_231", "op": "Const", "attr": {"value": {"tensor": {"dtype": "DT_INT64", "tensorShape": {"dim": [{"size": "4"}]}}}, "dtype": {"type": "DT_INT64"}}}, {"name": "unknown_232", "op": "Const", "attr": {"value": {"tensor": {"dtype": "DT_INT64", "tensorShape": {"dim": [{"size": "4"}]}}}, "dtype": {"type": "DT_INT64"}}}, {"name": "StatefulPartitionedCall/model_17/tf.strided_slice_14/ones_like", "op": "Const", "attr": {"value": {"tensor": {"dtype": "DT_INT64", "tensorShape": {"dim": [{"size": "4"}]}}}, "dtype": {"type": "DT_INT64"}}}, {"name": "unknown_246", "op": "Const", "attr": {"value": {"tensor": {"dtype": "DT_FLOAT", "tensorShape": {"dim": [{"size": "1"}, {"size": "1"}, {"size": "16"}, {"size": "8"}]}}}, "dtype": {"type": "DT_FLOAT"}}}, {"name": "unknown_248", "op": "Const", "attr": {"value": {"tensor": {"dtype": "DT_FLOAT", "tensorShape": {"dim": [{"size": "8"}]}}}, "dtype": {"type": "DT_FLOAT"}}}, {"name": "StatefulPartitionedCall/model_17/tf.concat_17/concat/axis", "op": "Const", "attr": {"value": {"tensor": {"dtype": "DT_INT32", "tensorShape": {}}}, "dtype": {"type": "DT_INT32"}}}, {"name": "unknown_249", "op": "Const", "attr": {"value": {"tensor": {"dtype": "DT_FLOAT", "tensorShape": {"dim": [{"size": "1"}, {"size": "1"}, {"size": "16"}, {"size": "16"}]}}}, "dtype": {"type": "DT_FLOAT"}}}, {"name": "unknown_250", "op": "Const", "attr": {"value": {"tensor": {"dtype": "DT_FLOAT", "tensorShape": {"dim": [{"size": "16"}]}}}, "dtype": {"type": "DT_FLOAT"}}}, {"name": "unknown_251", "op": "Const", "attr": {"value": {"tensor": {"dtype": "DT_FLOAT", "tensorShape": {"dim": [{"size": "3"}, {"size": "3"}, {"size": "16"}, {"size": "16"}]}}}, "dtype": {"type": "DT_FLOAT"}}}, {"name": "unknown_252", "op": "Const", "attr": {"value": {"tensor": {"dtype": "DT_FLOAT", "tensorShape": {"dim": [{"size": "16"}]}}}, "dtype": {"type": "DT_FLOAT"}}}, {"name": "unknown_266", "op": "Const", "attr": {"value": {"tensor": {"dtype": "DT_FLOAT", "tensorShape": {"dim": [{"size": "1"}, {"size": "1"}, {"size": "16"}, {"size": "8"}]}}}, "dtype": {"type": "DT_FLOAT"}}}, {"name": "unknown_268", "op": "Const", "attr": {"value": {"tensor": {"dtype": "DT_FLOAT", "tensorShape": {"dim": [{"size": "8"}]}}}, "dtype": {"type": "DT_FLOAT"}}}, {"name": "StatefulPartitionedCall/model_17/tf.concat_18/concat/axis", "op": "Const", "attr": {"value": {"tensor": {"dtype": "DT_INT32", "tensorShape": {}}}, "dtype": {"type": "DT_INT32"}}}, {"name": "unknown_269", "op": "Const", "attr": {"value": {"tensor": {"dtype": "DT_FLOAT", "tensorShape": {"dim": [{"size": "1"}, {"size": "1"}, {"size": "16"}, {"size": "16"}]}}}, "dtype": {"type": "DT_FLOAT"}}}, {"name": "unknown_270", "op": "Const", "attr": {"value": {"tensor": {"dtype": "DT_FLOAT", "tensorShape": {"dim": [{"size": "16"}]}}}, "dtype": {"type": "DT_FLOAT"}}}, {"name": "unknown_271", "op": "Const", "attr": {"value": {"tensor": {"dtype": "DT_FLOAT", "tensorShape": {"dim": [{"size": "3"}, {"size": "3"}, {"size": "16"}, {"size": "16"}]}}}, "dtype": {"type": "DT_FLOAT"}}}, {"name": "unknown_272", "op": "Const", "attr": {"value": {"tensor": {"dtype": "DT_FLOAT", "tensorShape": {"dim": [{"size": "16"}]}}}, "dtype": {"type": "DT_FLOAT"}}}, {"name": "StatefulPartitionedCall/model_17/tf.concat_19/concat/axis", "op": "Const", "attr": {"value": {"tensor": {"dtype": "DT_INT32", "tensorShape": {}}}, "dtype": {"type": "DT_INT32"}}}, {"name": "unknown_275", "op": "Const", "attr": {"value": {"tensor": {"dtype": "DT_FLOAT", "tensorShape": {"dim": [{"size": "1"}, {"size": "1"}, {"size": "64"}, {"size": "32"}]}}}, "dtype": {"type": "DT_FLOAT"}}}, {"name": "unknown_276", "op": "Const", "attr": {"value": {"tensor": {"dtype": "DT_FLOAT", "tensorShape": {"dim": [{"size": "32"}]}}}, "dtype": {"type": "DT_FLOAT"}}}, {"name": "unknown_277", "op": "Const", "attr": {"value": {"tensor": {"dtype": "DT_INT32", "tensorShape": {"dim": [{"size": "4"}, {"size": "2"}]}}}, "dtype": {"type": "DT_INT32"}}}, {"name": "unknown_278", "op": "Const", "attr": {"value": {"tensor": {"dtype": "DT_FLOAT", "tensorShape": {"dim": [{"size": "3"}, {"size": "3"}, {"size": "32"}, {"size": "24"}]}}}, "dtype": {"type": "DT_FLOAT"}}}, {"name": "unknown_279", "op": "Const", "attr": {"value": {"tensor": {"dtype": "DT_FLOAT", "tensorShape": {"dim": [{"size": "24"}]}}}, "dtype": {"type": "DT_FLOAT"}}}, {"name": "unknown_225", "op": "Const", "attr": {"value": {"tensor": {"dtype": "DT_INT64", "tensorShape": {"dim": [{"size": "4"}]}}}, "dtype": {"type": "DT_INT64"}}}, {"name": "unknown_226", "op": "Const", "attr": {"value": {"tensor": {"dtype": "DT_INT64", "tensorShape": {"dim": [{"size": "4"}]}}}, "dtype": {"type": "DT_INT64"}}}, {"name": "StatefulPartitionedCall/model_17/tf.strided_slice_11/ones_like", "op": "Const", "attr": {"value": {"tensor": {"dtype": "DT_INT64", "tensorShape": {"dim": [{"size": "4"}]}}}, "dtype": {"type": "DT_INT64"}}}, {"name": "unknown_205", "op": "Const", "attr": {"value": {"tensor": {"dtype": "DT_FLOAT", "tensorShape": {"dim": [{"size": "1"}, {"size": "1"}, {"size": "24"}, {"size": "12"}]}}}, "dtype": {"type": "DT_FLOAT"}}}, {"name": "unknown_206", "op": "Const", "attr": {"value": {"tensor": {"dtype": "DT_FLOAT", "tensorShape": {"dim": [{"size": "12"}]}}}, "dtype": {"type": "DT_FLOAT"}}}, {"name": "unknown_207", "op": "Const", "attr": {"value": {"tensor": {"dtype": "DT_FLOAT", "tensorShape": {"dim": [{"size": "3"}, {"size": "3"}, {"size": "12"}, {"size": "12"}]}}}, "dtype": {"type": "DT_FLOAT"}}}, {"name": "unknown_208", "op": "Const", "attr": {"value": {"tensor": {"dtype": "DT_FLOAT", "tensorShape": {"dim": [{"size": "12"}]}}}, "dtype": {"type": "DT_FLOAT"}}}, {"name": "unknown_209", "op": "Const", "attr": {"value": {"tensor": {"dtype": "DT_FLOAT", "tensorShape": {"dim": [{"size": "3"}, {"size": "3"}, {"size": "12"}, {"size": "12"}]}}}, "dtype": {"type": "DT_FLOAT"}}}, {"name": "unknown_210", "op": "Const", "attr": {"value": {"tensor": {"dtype": "DT_FLOAT", "tensorShape": {"dim": [{"size": "12"}]}}}, "dtype": {"type": "DT_FLOAT"}}}, {"name": "unknown_211", "op": "Const", "attr": {"value": {"tensor": {"dtype": "DT_FLOAT", "tensorShape": {"dim": [{"size": "3"}, {"size": "3"}, {"size": "12"}, {"size": "12"}]}}}, "dtype": {"type": "DT_FLOAT"}}}, {"name": "unknown_212", "op": "Const", "attr": {"value": {"tensor": {"dtype": "DT_FLOAT", "tensorShape": {"dim": [{"size": "12"}]}}}, "dtype": {"type": "DT_FLOAT"}}}, {"name": "unknown_213", "op": "Const", "attr": {"value": {"tensor": {"dtype": "DT_FLOAT", "tensorShape": {"dim": [{"size": "3"}, {"size": "3"}, {"size": "12"}, {"size": "12"}]}}}, "dtype": {"type": "DT_FLOAT"}}}, {"name": "unknown_214", "op": "Const", "attr": {"value": {"tensor": {"dtype": "DT_FLOAT", "tensorShape": {"dim": [{"size": "12"}]}}}, "dtype": {"type": "DT_FLOAT"}}}, {"name": "unknown_215", "op": "Const", "attr": {"value": {"tensor": {"dtype": "DT_FLOAT", "tensorShape": {"dim": [{"size": "3"}, {"size": "3"}, {"size": "12"}, {"size": "12"}]}}}, "dtype": {"type": "DT_FLOAT"}}}, {"name": "unknown_216", "op": "Const", "attr": {"value": {"tensor": {"dtype": "DT_FLOAT", "tensorShape": {"dim": [{"size": "12"}]}}}, "dtype": {"type": "DT_FLOAT"}}}, {"name": "unknown_217", "op": "Const", "attr": {"value": {"tensor": {"dtype": "DT_FLOAT", "tensorShape": {"dim": [{"size": "3"}, {"size": "3"}, {"size": "12"}, {"size": "12"}]}}}, "dtype": {"type": "DT_FLOAT"}}}, {"name": "unknown_219", "op": "Const", "attr": {"value": {"tensor": {"dtype": "DT_FLOAT", "tensorShape": {"dim": [{"size": "12"}]}}}, "dtype": {"type": "DT_FLOAT"}}}, {"name": "unknown_185", "op": "Const", "attr": {"value": {"tensor": {"dtype": "DT_FLOAT", "tensorShape": {"dim": [{"size": "1"}, {"size": "1"}, {"size": "24"}, {"size": "12"}]}}}, "dtype": {"type": "DT_FLOAT"}}}, {"name": "unknown_186", "op": "Const", "attr": {"value": {"tensor": {"dtype": "DT_FLOAT", "tensorShape": {"dim": [{"size": "12"}]}}}, "dtype": {"type": "DT_FLOAT"}}}, {"name": "unknown_187", "op": "Const", "attr": {"value": {"tensor": {"dtype": "DT_FLOAT", "tensorShape": {"dim": [{"size": "3"}, {"size": "3"}, {"size": "12"}, {"size": "12"}]}}}, "dtype": {"type": "DT_FLOAT"}}}, {"name": "unknown_188", "op": "Const", "attr": {"value": {"tensor": {"dtype": "DT_FLOAT", "tensorShape": {"dim": [{"size": "12"}]}}}, "dtype": {"type": "DT_FLOAT"}}}, {"name": "unknown_189", "op": "Const", "attr": {"value": {"tensor": {"dtype": "DT_FLOAT", "tensorShape": {"dim": [{"size": "3"}, {"size": "3"}, {"size": "12"}, {"size": "12"}]}}}, "dtype": {"type": "DT_FLOAT"}}}, {"name": "unknown_190", "op": "Const", "attr": {"value": {"tensor": {"dtype": "DT_FLOAT", "tensorShape": {"dim": [{"size": "12"}]}}}, "dtype": {"type": "DT_FLOAT"}}}, {"name": "unknown_191", "op": "Const", "attr": {"value": {"tensor": {"dtype": "DT_FLOAT", "tensorShape": {"dim": [{"size": "3"}, {"size": "3"}, {"size": "12"}, {"size": "12"}]}}}, "dtype": {"type": "DT_FLOAT"}}}, {"name": "unknown_192", "op": "Const", "attr": {"value": {"tensor": {"dtype": "DT_FLOAT", "tensorShape": {"dim": [{"size": "12"}]}}}, "dtype": {"type": "DT_FLOAT"}}}, {"name": "unknown_193", "op": "Const", "attr": {"value": {"tensor": {"dtype": "DT_FLOAT", "tensorShape": {"dim": [{"size": "3"}, {"size": "3"}, {"size": "12"}, {"size": "12"}]}}}, "dtype": {"type": "DT_FLOAT"}}}, {"name": "unknown_194", "op": "Const", "attr": {"value": {"tensor": {"dtype": "DT_FLOAT", "tensorShape": {"dim": [{"size": "12"}]}}}, "dtype": {"type": "DT_FLOAT"}}}, {"name": "unknown_195", "op": "Const", "attr": {"value": {"tensor": {"dtype": "DT_FLOAT", "tensorShape": {"dim": [{"size": "3"}, {"size": "3"}, {"size": "12"}, {"size": "12"}]}}}, "dtype": {"type": "DT_FLOAT"}}}, {"name": "unknown_196", "op": "Const", "attr": {"value": {"tensor": {"dtype": "DT_FLOAT", "tensorShape": {"dim": [{"size": "12"}]}}}, "dtype": {"type": "DT_FLOAT"}}}, {"name": "unknown_197", "op": "Const", "attr": {"value": {"tensor": {"dtype": "DT_FLOAT", "tensorShape": {"dim": [{"size": "3"}, {"size": "3"}, {"size": "12"}, {"size": "12"}]}}}, "dtype": {"type": "DT_FLOAT"}}}, {"name": "unknown_199", "op": "Const", "attr": {"value": {"tensor": {"dtype": "DT_FLOAT", "tensorShape": {"dim": [{"size": "12"}]}}}, "dtype": {"type": "DT_FLOAT"}}}, {"name": "StatefulPartitionedCall/model_17/tf.compat.v1.image.resize_nearest_neighbor_1/ResizeNearestNeighbor/size", "op": "Const", "attr": {"value": {"tensor": {"dtype": "DT_INT32", "tensorShape": {"dim": [{"size": "2"}]}}}, "dtype": {"type": "DT_INT32"}}}, {"name": "StatefulPartitionedCall/model_17/tf.concat_12/concat/axis", "op": "Const", "attr": {"value": {"tensor": {"dtype": "DT_INT32", "tensorShape": {}}}, "dtype": {"type": "DT_INT32"}}}, {"name": "unknown_181", "op": "Const", "attr": {"value": {"tensor": {"dtype": "DT_FLOAT", "tensorShape": {"dim": [{"size": "1"}, {"size": "1"}, {"size": "112"}, {"size": "48"}]}}}, "dtype": {"type": "DT_FLOAT"}}}, {"name": "unknown_182", "op": "Const", "attr": {"value": {"tensor": {"dtype": "DT_FLOAT", "tensorShape": {"dim": [{"size": "48"}]}}}, "dtype": {"type": "DT_FLOAT"}}}, {"name": "unknown_183", "op": "Const", "attr": {"value": {"tensor": {"dtype": "DT_INT64", "tensorShape": {"dim": [{"size": "4"}]}}}, "dtype": {"type": "DT_INT64"}}}, {"name": "unknown_184", "op": "Const", "attr": {"value": {"tensor": {"dtype": "DT_INT64", "tensorShape": {"dim": [{"size": "4"}]}}}, "dtype": {"type": "DT_INT64"}}}, {"name": "StatefulPartitionedCall/model_17/tf.strided_slice_12/ones_like", "op": "Const", "attr": {"value": {"tensor": {"dtype": "DT_INT64", "tensorShape": {"dim": [{"size": "4"}]}}}, "dtype": {"type": "DT_INT64"}}}, {"name": "unknown_198", "op": "Const", "attr": {"value": {"tensor": {"dtype": "DT_FLOAT", "tensorShape": {"dim": [{"size": "1"}, {"size": "1"}, {"size": "24"}, {"size": "12"}]}}}, "dtype": {"type": "DT_FLOAT"}}}, {"name": "unknown_200", "op": "Const", "attr": {"value": {"tensor": {"dtype": "DT_FLOAT", "tensorShape": {"dim": [{"size": "12"}]}}}, "dtype": {"type": "DT_FLOAT"}}}, {"name": "StatefulPartitionedCall/model_17/tf.concat_13/concat/axis", "op": "Const", "attr": {"value": {"tensor": {"dtype": "DT_INT32", "tensorShape": {}}}, "dtype": {"type": "DT_INT32"}}}, {"name": "unknown_201", "op": "Const", "attr": {"value": {"tensor": {"dtype": "DT_FLOAT", "tensorShape": {"dim": [{"size": "1"}, {"size": "1"}, {"size": "24"}, {"size": "24"}]}}}, "dtype": {"type": "DT_FLOAT"}}}, {"name": "unknown_202", "op": "Const", "attr": {"value": {"tensor": {"dtype": "DT_FLOAT", "tensorShape": {"dim": [{"size": "24"}]}}}, "dtype": {"type": "DT_FLOAT"}}}, {"name": "unknown_203", "op": "Const", "attr": {"value": {"tensor": {"dtype": "DT_FLOAT", "tensorShape": {"dim": [{"size": "3"}, {"size": "3"}, {"size": "24"}, {"size": "24"}]}}}, "dtype": {"type": "DT_FLOAT"}}}, {"name": "unknown_204", "op": "Const", "attr": {"value": {"tensor": {"dtype": "DT_FLOAT", "tensorShape": {"dim": [{"size": "24"}]}}}, "dtype": {"type": "DT_FLOAT"}}}, {"name": "unknown_218", "op": "Const", "attr": {"value": {"tensor": {"dtype": "DT_FLOAT", "tensorShape": {"dim": [{"size": "1"}, {"size": "1"}, {"size": "24"}, {"size": "12"}]}}}, "dtype": {"type": "DT_FLOAT"}}}, {"name": "unknown_220", "op": "Const", "attr": {"value": {"tensor": {"dtype": "DT_FLOAT", "tensorShape": {"dim": [{"size": "12"}]}}}, "dtype": {"type": "DT_FLOAT"}}}, {"name": "StatefulPartitionedCall/model_17/tf.concat_14/concat/axis", "op": "Const", "attr": {"value": {"tensor": {"dtype": "DT_INT32", "tensorShape": {}}}, "dtype": {"type": "DT_INT32"}}}, {"name": "unknown_221", "op": "Const", "attr": {"value": {"tensor": {"dtype": "DT_FLOAT", "tensorShape": {"dim": [{"size": "1"}, {"size": "1"}, {"size": "24"}, {"size": "24"}]}}}, "dtype": {"type": "DT_FLOAT"}}}, {"name": "unknown_222", "op": "Const", "attr": {"value": {"tensor": {"dtype": "DT_FLOAT", "tensorShape": {"dim": [{"size": "24"}]}}}, "dtype": {"type": "DT_FLOAT"}}}, {"name": "unknown_223", "op": "Const", "attr": {"value": {"tensor": {"dtype": "DT_FLOAT", "tensorShape": {"dim": [{"size": "3"}, {"size": "3"}, {"size": "24"}, {"size": "24"}]}}}, "dtype": {"type": "DT_FLOAT"}}}, {"name": "unknown_224", "op": "Const", "attr": {"value": {"tensor": {"dtype": "DT_FLOAT", "tensorShape": {"dim": [{"size": "24"}]}}}, "dtype": {"type": "DT_FLOAT"}}}, {"name": "StatefulPartitionedCall/model_17/tf.concat_15/concat/axis", "op": "Const", "attr": {"value": {"tensor": {"dtype": "DT_INT32", "tensorShape": {}}}, "dtype": {"type": "DT_INT32"}}}, {"name": "unknown_227", "op": "Const", "attr": {"value": {"tensor": {"dtype": "DT_FLOAT", "tensorShape": {"dim": [{"size": "1"}, {"size": "1"}, {"size": "96"}, {"size": "48"}]}}}, "dtype": {"type": "DT_FLOAT"}}}, {"name": "unknown_228", "op": "Const", "attr": {"value": {"tensor": {"dtype": "DT_FLOAT", "tensorShape": {"dim": [{"size": "48"}]}}}, "dtype": {"type": "DT_FLOAT"}}}, {"name": "StatefulPartitionedCall/model_17/tf.concat_20/concat/axis", "op": "Const", "attr": {"value": {"tensor": {"dtype": "DT_INT32", "tensorShape": {}}}, "dtype": {"type": "DT_INT32"}}}, {"name": "unknown_280", "op": "Const", "attr": {"value": {"tensor": {"dtype": "DT_FLOAT", "tensorShape": {"dim": [{"size": "1"}, {"size": "1"}, {"size": "72"}, {"size": "48"}]}}}, "dtype": {"type": "DT_FLOAT"}}}, {"name": "unknown_281", "op": "Const", "attr": {"value": {"tensor": {"dtype": "DT_FLOAT", "tensorShape": {"dim": [{"size": "48"}]}}}, "dtype": {"type": "DT_FLOAT"}}}, {"name": "unknown_282", "op": "Const", "attr": {"value": {"tensor": {"dtype": "DT_INT64", "tensorShape": {"dim": [{"size": "4"}]}}}, "dtype": {"type": "DT_INT64"}}}, {"name": "unknown_283", "op": "Const", "attr": {"value": {"tensor": {"dtype": "DT_INT64", "tensorShape": {"dim": [{"size": "4"}]}}}, "dtype": {"type": "DT_INT64"}}}, {"name": "StatefulPartitionedCall/model_17/tf.strided_slice_16/ones_like", "op": "Const", "attr": {"value": {"tensor": {"dtype": "DT_INT64", "tensorShape": {"dim": [{"size": "4"}]}}}, "dtype": {"type": "DT_INT64"}}}, {"name": "unknown_297", "op": "Const", "attr": {"value": {"tensor": {"dtype": "DT_FLOAT", "tensorShape": {"dim": [{"size": "1"}, {"size": "1"}, {"size": "24"}, {"size": "12"}]}}}, "dtype": {"type": "DT_FLOAT"}}}, {"name": "unknown_299", "op": "Const", "attr": {"value": {"tensor": {"dtype": "DT_FLOAT", "tensorShape": {"dim": [{"size": "12"}]}}}, "dtype": {"type": "DT_FLOAT"}}}, {"name": "StatefulPartitionedCall/model_17/tf.concat_22/concat/axis", "op": "Const", "attr": {"value": {"tensor": {"dtype": "DT_INT32", "tensorShape": {}}}, "dtype": {"type": "DT_INT32"}}}, {"name": "unknown_300", "op": "Const", "attr": {"value": {"tensor": {"dtype": "DT_FLOAT", "tensorShape": {"dim": [{"size": "1"}, {"size": "1"}, {"size": "24"}, {"size": "24"}]}}}, "dtype": {"type": "DT_FLOAT"}}}, {"name": "unknown_301", "op": "Const", "attr": {"value": {"tensor": {"dtype": "DT_FLOAT", "tensorShape": {"dim": [{"size": "24"}]}}}, "dtype": {"type": "DT_FLOAT"}}}, {"name": "unknown_302", "op": "Const", "attr": {"value": {"tensor": {"dtype": "DT_FLOAT", "tensorShape": {"dim": [{"size": "3"}, {"size": "3"}, {"size": "24"}, {"size": "24"}]}}}, "dtype": {"type": "DT_FLOAT"}}}, {"name": "unknown_303", "op": "Const", "attr": {"value": {"tensor": {"dtype": "DT_FLOAT", "tensorShape": {"dim": [{"size": "24"}]}}}, "dtype": {"type": "DT_FLOAT"}}}, {"name": "unknown_317", "op": "Const", "attr": {"value": {"tensor": {"dtype": "DT_FLOAT", "tensorShape": {"dim": [{"size": "1"}, {"size": "1"}, {"size": "24"}, {"size": "12"}]}}}, "dtype": {"type": "DT_FLOAT"}}}, {"name": "unknown_319", "op": "Const", "attr": {"value": {"tensor": {"dtype": "DT_FLOAT", "tensorShape": {"dim": [{"size": "12"}]}}}, "dtype": {"type": "DT_FLOAT"}}}, {"name": "StatefulPartitionedCall/model_17/tf.concat_23/concat/axis", "op": "Const", "attr": {"value": {"tensor": {"dtype": "DT_INT32", "tensorShape": {}}}, "dtype": {"type": "DT_INT32"}}}, {"name": "unknown_320", "op": "Const", "attr": {"value": {"tensor": {"dtype": "DT_FLOAT", "tensorShape": {"dim": [{"size": "1"}, {"size": "1"}, {"size": "24"}, {"size": "24"}]}}}, "dtype": {"type": "DT_FLOAT"}}}, {"name": "unknown_321", "op": "Const", "attr": {"value": {"tensor": {"dtype": "DT_FLOAT", "tensorShape": {"dim": [{"size": "24"}]}}}, "dtype": {"type": "DT_FLOAT"}}}, {"name": "unknown_322", "op": "Const", "attr": {"value": {"tensor": {"dtype": "DT_FLOAT", "tensorShape": {"dim": [{"size": "3"}, {"size": "3"}, {"size": "24"}, {"size": "24"}]}}}, "dtype": {"type": "DT_FLOAT"}}}, {"name": "unknown_323", "op": "Const", "attr": {"value": {"tensor": {"dtype": "DT_FLOAT", "tensorShape": {"dim": [{"size": "24"}]}}}, "dtype": {"type": "DT_FLOAT"}}}, {"name": "StatefulPartitionedCall/model_17/tf.concat_24/concat/axis", "op": "Const", "attr": {"value": {"tensor": {"dtype": "DT_INT32", "tensorShape": {}}}, "dtype": {"type": "DT_INT32"}}}, {"name": "unknown_326", "op": "Const", "attr": {"value": {"tensor": {"dtype": "DT_FLOAT", "tensorShape": {"dim": [{"size": "1"}, {"size": "1"}, {"size": "96"}, {"size": "48"}]}}}, "dtype": {"type": "DT_FLOAT"}}}, {"name": "unknown_327", "op": "Const", "attr": {"value": {"tensor": {"dtype": "DT_FLOAT", "tensorShape": {"dim": [{"size": "48"}]}}}, "dtype": {"type": "DT_FLOAT"}}}, {"name": "unknown_328", "op": "Const", "attr": {"value": {"tensor": {"dtype": "DT_INT32", "tensorShape": {"dim": [{"size": "4"}, {"size": "2"}]}}}, "dtype": {"type": "DT_INT32"}}}, {"name": "unknown_329", "op": "Const", "attr": {"value": {"tensor": {"dtype": "DT_FLOAT", "tensorShape": {"dim": [{"size": "3"}, {"size": "3"}, {"size": "48"}, {"size": "32"}]}}}, "dtype": {"type": "DT_FLOAT"}}}, {"name": "unknown_330", "op": "Const", "attr": {"value": {"tensor": {"dtype": "DT_FLOAT", "tensorShape": {"dim": [{"size": "32"}]}}}, "dtype": {"type": "DT_FLOAT"}}}, {"name": "unknown_173", "op": "Const", "attr": {"value": {"tensor": {"dtype": "DT_INT64", "tensorShape": {"dim": [{"size": "4"}]}}}, "dtype": {"type": "DT_INT64"}}}, {"name": "unknown_174", "op": "Const", "attr": {"value": {"tensor": {"dtype": "DT_INT64", "tensorShape": {"dim": [{"size": "4"}]}}}, "dtype": {"type": "DT_INT64"}}}, {"name": "StatefulPartitionedCall/model_17/tf.strided_slice_9/ones_like", "op": "Const", "attr": {"value": {"tensor": {"dtype": "DT_INT64", "tensorShape": {"dim": [{"size": "4"}]}}}, "dtype": {"type": "DT_INT64"}}}, {"name": "unknown_153", "op": "Const", "attr": {"value": {"tensor": {"dtype": "DT_FLOAT", "tensorShape": {"dim": [{"size": "1"}, {"size": "1"}, {"size": "32"}, {"size": "16"}]}}}, "dtype": {"type": "DT_FLOAT"}}}, {"name": "unknown_154", "op": "Const", "attr": {"value": {"tensor": {"dtype": "DT_FLOAT", "tensorShape": {"dim": [{"size": "16"}]}}}, "dtype": {"type": "DT_FLOAT"}}}, {"name": "unknown_155", "op": "Const", "attr": {"value": {"tensor": {"dtype": "DT_FLOAT", "tensorShape": {"dim": [{"size": "3"}, {"size": "3"}, {"size": "16"}, {"size": "16"}]}}}, "dtype": {"type": "DT_FLOAT"}}}, {"name": "unknown_156", "op": "Const", "attr": {"value": {"tensor": {"dtype": "DT_FLOAT", "tensorShape": {"dim": [{"size": "16"}]}}}, "dtype": {"type": "DT_FLOAT"}}}, {"name": "unknown_157", "op": "Const", "attr": {"value": {"tensor": {"dtype": "DT_FLOAT", "tensorShape": {"dim": [{"size": "3"}, {"size": "3"}, {"size": "16"}, {"size": "16"}]}}}, "dtype": {"type": "DT_FLOAT"}}}, {"name": "unknown_158", "op": "Const", "attr": {"value": {"tensor": {"dtype": "DT_FLOAT", "tensorShape": {"dim": [{"size": "16"}]}}}, "dtype": {"type": "DT_FLOAT"}}}, {"name": "unknown_159", "op": "Const", "attr": {"value": {"tensor": {"dtype": "DT_FLOAT", "tensorShape": {"dim": [{"size": "3"}, {"size": "3"}, {"size": "16"}, {"size": "16"}]}}}, "dtype": {"type": "DT_FLOAT"}}}, {"name": "unknown_160", "op": "Const", "attr": {"value": {"tensor": {"dtype": "DT_FLOAT", "tensorShape": {"dim": [{"size": "16"}]}}}, "dtype": {"type": "DT_FLOAT"}}}, {"name": "unknown_161", "op": "Const", "attr": {"value": {"tensor": {"dtype": "DT_FLOAT", "tensorShape": {"dim": [{"size": "3"}, {"size": "3"}, {"size": "16"}, {"size": "16"}]}}}, "dtype": {"type": "DT_FLOAT"}}}, {"name": "unknown_162", "op": "Const", "attr": {"value": {"tensor": {"dtype": "DT_FLOAT", "tensorShape": {"dim": [{"size": "16"}]}}}, "dtype": {"type": "DT_FLOAT"}}}, {"name": "unknown_163", "op": "Const", "attr": {"value": {"tensor": {"dtype": "DT_FLOAT", "tensorShape": {"dim": [{"size": "3"}, {"size": "3"}, {"size": "16"}, {"size": "16"}]}}}, "dtype": {"type": "DT_FLOAT"}}}, {"name": "unknown_164", "op": "Const", "attr": {"value": {"tensor": {"dtype": "DT_FLOAT", "tensorShape": {"dim": [{"size": "16"}]}}}, "dtype": {"type": "DT_FLOAT"}}}, {"name": "unknown_165", "op": "Const", "attr": {"value": {"tensor": {"dtype": "DT_FLOAT", "tensorShape": {"dim": [{"size": "3"}, {"size": "3"}, {"size": "16"}, {"size": "16"}]}}}, "dtype": {"type": "DT_FLOAT"}}}, {"name": "unknown_167", "op": "Const", "attr": {"value": {"tensor": {"dtype": "DT_FLOAT", "tensorShape": {"dim": [{"size": "16"}]}}}, "dtype": {"type": "DT_FLOAT"}}}, {"name": "unknown_133", "op": "Const", "attr": {"value": {"tensor": {"dtype": "DT_FLOAT", "tensorShape": {"dim": [{"size": "1"}, {"size": "1"}, {"size": "32"}, {"size": "16"}]}}}, "dtype": {"type": "DT_FLOAT"}}}, {"name": "unknown_134", "op": "Const", "attr": {"value": {"tensor": {"dtype": "DT_FLOAT", "tensorShape": {"dim": [{"size": "16"}]}}}, "dtype": {"type": "DT_FLOAT"}}}, {"name": "unknown_135", "op": "Const", "attr": {"value": {"tensor": {"dtype": "DT_FLOAT", "tensorShape": {"dim": [{"size": "3"}, {"size": "3"}, {"size": "16"}, {"size": "16"}]}}}, "dtype": {"type": "DT_FLOAT"}}}, {"name": "unknown_136", "op": "Const", "attr": {"value": {"tensor": {"dtype": "DT_FLOAT", "tensorShape": {"dim": [{"size": "16"}]}}}, "dtype": {"type": "DT_FLOAT"}}}, {"name": "unknown_137", "op": "Const", "attr": {"value": {"tensor": {"dtype": "DT_FLOAT", "tensorShape": {"dim": [{"size": "3"}, {"size": "3"}, {"size": "16"}, {"size": "16"}]}}}, "dtype": {"type": "DT_FLOAT"}}}, {"name": "unknown_138", "op": "Const", "attr": {"value": {"tensor": {"dtype": "DT_FLOAT", "tensorShape": {"dim": [{"size": "16"}]}}}, "dtype": {"type": "DT_FLOAT"}}}, {"name": "unknown_139", "op": "Const", "attr": {"value": {"tensor": {"dtype": "DT_FLOAT", "tensorShape": {"dim": [{"size": "3"}, {"size": "3"}, {"size": "16"}, {"size": "16"}]}}}, "dtype": {"type": "DT_FLOAT"}}}, {"name": "unknown_140", "op": "Const", "attr": {"value": {"tensor": {"dtype": "DT_FLOAT", "tensorShape": {"dim": [{"size": "16"}]}}}, "dtype": {"type": "DT_FLOAT"}}}, {"name": "unknown_141", "op": "Const", "attr": {"value": {"tensor": {"dtype": "DT_FLOAT", "tensorShape": {"dim": [{"size": "3"}, {"size": "3"}, {"size": "16"}, {"size": "16"}]}}}, "dtype": {"type": "DT_FLOAT"}}}, {"name": "unknown_142", "op": "Const", "attr": {"value": {"tensor": {"dtype": "DT_FLOAT", "tensorShape": {"dim": [{"size": "16"}]}}}, "dtype": {"type": "DT_FLOAT"}}}, {"name": "unknown_143", "op": "Const", "attr": {"value": {"tensor": {"dtype": "DT_FLOAT", "tensorShape": {"dim": [{"size": "3"}, {"size": "3"}, {"size": "16"}, {"size": "16"}]}}}, "dtype": {"type": "DT_FLOAT"}}}, {"name": "unknown_144", "op": "Const", "attr": {"value": {"tensor": {"dtype": "DT_FLOAT", "tensorShape": {"dim": [{"size": "16"}]}}}, "dtype": {"type": "DT_FLOAT"}}}, {"name": "unknown_145", "op": "Const", "attr": {"value": {"tensor": {"dtype": "DT_FLOAT", "tensorShape": {"dim": [{"size": "3"}, {"size": "3"}, {"size": "16"}, {"size": "16"}]}}}, "dtype": {"type": "DT_FLOAT"}}}, {"name": "unknown_147", "op": "Const", "attr": {"value": {"tensor": {"dtype": "DT_FLOAT", "tensorShape": {"dim": [{"size": "16"}]}}}, "dtype": {"type": "DT_FLOAT"}}}, {"name": "unknown_122", "op": "Const", "attr": {"value": {"tensor": {"dtype": "DT_INT64", "tensorShape": {"dim": [{"size": "4"}]}}}, "dtype": {"type": "DT_INT64"}}}, {"name": "unknown_123", "op": "Const", "attr": {"value": {"tensor": {"dtype": "DT_INT64", "tensorShape": {"dim": [{"size": "4"}]}}}, "dtype": {"type": "DT_INT64"}}}, {"name": "StatefulPartitionedCall/model_17/tf.strided_slice_7/ones_like", "op": "Const", "attr": {"value": {"tensor": {"dtype": "DT_INT64", "tensorShape": {"dim": [{"size": "4"}]}}}, "dtype": {"type": "DT_INT64"}}}, {"name": "unknown_102", "op": "Const", "attr": {"value": {"tensor": {"dtype": "DT_FLOAT", "tensorShape": {"dim": [{"size": "1"}, {"size": "1"}, {"size": "24"}, {"size": "12"}]}}}, "dtype": {"type": "DT_FLOAT"}}}, {"name": "unknown_103", "op": "Const", "attr": {"value": {"tensor": {"dtype": "DT_FLOAT", "tensorShape": {"dim": [{"size": "12"}]}}}, "dtype": {"type": "DT_FLOAT"}}}, {"name": "unknown_104", "op": "Const", "attr": {"value": {"tensor": {"dtype": "DT_FLOAT", "tensorShape": {"dim": [{"size": "3"}, {"size": "3"}, {"size": "12"}, {"size": "12"}]}}}, "dtype": {"type": "DT_FLOAT"}}}, {"name": "unknown_105", "op": "Const", "attr": {"value": {"tensor": {"dtype": "DT_FLOAT", "tensorShape": {"dim": [{"size": "12"}]}}}, "dtype": {"type": "DT_FLOAT"}}}, {"name": "unknown_106", "op": "Const", "attr": {"value": {"tensor": {"dtype": "DT_FLOAT", "tensorShape": {"dim": [{"size": "3"}, {"size": "3"}, {"size": "12"}, {"size": "12"}]}}}, "dtype": {"type": "DT_FLOAT"}}}, {"name": "unknown_107", "op": "Const", "attr": {"value": {"tensor": {"dtype": "DT_FLOAT", "tensorShape": {"dim": [{"size": "12"}]}}}, "dtype": {"type": "DT_FLOAT"}}}, {"name": "unknown_108", "op": "Const", "attr": {"value": {"tensor": {"dtype": "DT_FLOAT", "tensorShape": {"dim": [{"size": "3"}, {"size": "3"}, {"size": "12"}, {"size": "12"}]}}}, "dtype": {"type": "DT_FLOAT"}}}, {"name": "unknown_109", "op": "Const", "attr": {"value": {"tensor": {"dtype": "DT_FLOAT", "tensorShape": {"dim": [{"size": "12"}]}}}, "dtype": {"type": "DT_FLOAT"}}}, {"name": "unknown_110", "op": "Const", "attr": {"value": {"tensor": {"dtype": "DT_FLOAT", "tensorShape": {"dim": [{"size": "3"}, {"size": "3"}, {"size": "12"}, {"size": "12"}]}}}, "dtype": {"type": "DT_FLOAT"}}}, {"name": "unknown_111", "op": "Const", "attr": {"value": {"tensor": {"dtype": "DT_FLOAT", "tensorShape": {"dim": [{"size": "12"}]}}}, "dtype": {"type": "DT_FLOAT"}}}, {"name": "unknown_112", "op": "Const", "attr": {"value": {"tensor": {"dtype": "DT_FLOAT", "tensorShape": {"dim": [{"size": "3"}, {"size": "3"}, {"size": "12"}, {"size": "12"}]}}}, "dtype": {"type": "DT_FLOAT"}}}, {"name": "unknown_113", "op": "Const", "attr": {"value": {"tensor": {"dtype": "DT_FLOAT", "tensorShape": {"dim": [{"size": "12"}]}}}, "dtype": {"type": "DT_FLOAT"}}}, {"name": "unknown_114", "op": "Const", "attr": {"value": {"tensor": {"dtype": "DT_FLOAT", "tensorShape": {"dim": [{"size": "3"}, {"size": "3"}, {"size": "12"}, {"size": "12"}]}}}, "dtype": {"type": "DT_FLOAT"}}}, {"name": "unknown_116", "op": "Const", "attr": {"value": {"tensor": {"dtype": "DT_FLOAT", "tensorShape": {"dim": [{"size": "12"}]}}}, "dtype": {"type": "DT_FLOAT"}}}, {"name": "unknown_82", "op": "Const", "attr": {"value": {"tensor": {"dtype": "DT_FLOAT", "tensorShape": {"dim": [{"size": "1"}, {"size": "1"}, {"size": "24"}, {"size": "12"}]}}}, "dtype": {"type": "DT_FLOAT"}}}, {"name": "unknown_83", "op": "Const", "attr": {"value": {"tensor": {"dtype": "DT_FLOAT", "tensorShape": {"dim": [{"size": "12"}]}}}, "dtype": {"type": "DT_FLOAT"}}}, {"name": "unknown_84", "op": "Const", "attr": {"value": {"tensor": {"dtype": "DT_FLOAT", "tensorShape": {"dim": [{"size": "3"}, {"size": "3"}, {"size": "12"}, {"size": "12"}]}}}, "dtype": {"type": "DT_FLOAT"}}}, {"name": "unknown_85", "op": "Const", "attr": {"value": {"tensor": {"dtype": "DT_FLOAT", "tensorShape": {"dim": [{"size": "12"}]}}}, "dtype": {"type": "DT_FLOAT"}}}, {"name": "unknown_86", "op": "Const", "attr": {"value": {"tensor": {"dtype": "DT_FLOAT", "tensorShape": {"dim": [{"size": "3"}, {"size": "3"}, {"size": "12"}, {"size": "12"}]}}}, "dtype": {"type": "DT_FLOAT"}}}, {"name": "unknown_87", "op": "Const", "attr": {"value": {"tensor": {"dtype": "DT_FLOAT", "tensorShape": {"dim": [{"size": "12"}]}}}, "dtype": {"type": "DT_FLOAT"}}}, {"name": "unknown_88", "op": "Const", "attr": {"value": {"tensor": {"dtype": "DT_FLOAT", "tensorShape": {"dim": [{"size": "3"}, {"size": "3"}, {"size": "12"}, {"size": "12"}]}}}, "dtype": {"type": "DT_FLOAT"}}}, {"name": "unknown_89", "op": "Const", "attr": {"value": {"tensor": {"dtype": "DT_FLOAT", "tensorShape": {"dim": [{"size": "12"}]}}}, "dtype": {"type": "DT_FLOAT"}}}, {"name": "unknown_90", "op": "Const", "attr": {"value": {"tensor": {"dtype": "DT_FLOAT", "tensorShape": {"dim": [{"size": "3"}, {"size": "3"}, {"size": "12"}, {"size": "12"}]}}}, "dtype": {"type": "DT_FLOAT"}}}, {"name": "unknown_91", "op": "Const", "attr": {"value": {"tensor": {"dtype": "DT_FLOAT", "tensorShape": {"dim": [{"size": "12"}]}}}, "dtype": {"type": "DT_FLOAT"}}}, {"name": "unknown_92", "op": "Const", "attr": {"value": {"tensor": {"dtype": "DT_FLOAT", "tensorShape": {"dim": [{"size": "3"}, {"size": "3"}, {"size": "12"}, {"size": "12"}]}}}, "dtype": {"type": "DT_FLOAT"}}}, {"name": "unknown_93", "op": "Const", "attr": {"value": {"tensor": {"dtype": "DT_FLOAT", "tensorShape": {"dim": [{"size": "12"}]}}}, "dtype": {"type": "DT_FLOAT"}}}, {"name": "unknown_94", "op": "Const", "attr": {"value": {"tensor": {"dtype": "DT_FLOAT", "tensorShape": {"dim": [{"size": "3"}, {"size": "3"}, {"size": "12"}, {"size": "12"}]}}}, "dtype": {"type": "DT_FLOAT"}}}, {"name": "unknown_96", "op": "Const", "attr": {"value": {"tensor": {"dtype": "DT_FLOAT", "tensorShape": {"dim": [{"size": "12"}]}}}, "dtype": {"type": "DT_FLOAT"}}}, {"name": "unknown_71", "op": "Const", "attr": {"value": {"tensor": {"dtype": "DT_INT64", "tensorShape": {"dim": [{"size": "4"}]}}}, "dtype": {"type": "DT_INT64"}}}, {"name": "unknown_72", "op": "Const", "attr": {"value": {"tensor": {"dtype": "DT_INT64", "tensorShape": {"dim": [{"size": "4"}]}}}, "dtype": {"type": "DT_INT64"}}}, {"name": "StatefulPartitionedCall/model_17/tf.strided_slice_5/ones_like", "op": "Const", "attr": {"value": {"tensor": {"dtype": "DT_INT64", "tensorShape": {"dim": [{"size": "4"}]}}}, "dtype": {"type": "DT_INT64"}}}, {"name": "unknown_51", "op": "Const", "attr": {"value": {"tensor": {"dtype": "DT_FLOAT", "tensorShape": {"dim": [{"size": "1"}, {"size": "1"}, {"size": "16"}, {"size": "8"}]}}}, "dtype": {"type": "DT_FLOAT"}}}, {"name": "unknown_52", "op": "Const", "attr": {"value": {"tensor": {"dtype": "DT_FLOAT", "tensorShape": {"dim": [{"size": "8"}]}}}, "dtype": {"type": "DT_FLOAT"}}}, {"name": "unknown_53", "op": "Const", "attr": {"value": {"tensor": {"dtype": "DT_FLOAT", "tensorShape": {"dim": [{"size": "3"}, {"size": "3"}, {"size": "8"}, {"size": "8"}]}}}, "dtype": {"type": "DT_FLOAT"}}}, {"name": "unknown_54", "op": "Const", "attr": {"value": {"tensor": {"dtype": "DT_FLOAT", "tensorShape": {"dim": [{"size": "8"}]}}}, "dtype": {"type": "DT_FLOAT"}}}, {"name": "unknown_55", "op": "Const", "attr": {"value": {"tensor": {"dtype": "DT_FLOAT", "tensorShape": {"dim": [{"size": "3"}, {"size": "3"}, {"size": "8"}, {"size": "8"}]}}}, "dtype": {"type": "DT_FLOAT"}}}, {"name": "unknown_56", "op": "Const", "attr": {"value": {"tensor": {"dtype": "DT_FLOAT", "tensorShape": {"dim": [{"size": "8"}]}}}, "dtype": {"type": "DT_FLOAT"}}}, {"name": "unknown_57", "op": "Const", "attr": {"value": {"tensor": {"dtype": "DT_FLOAT", "tensorShape": {"dim": [{"size": "3"}, {"size": "3"}, {"size": "8"}, {"size": "8"}]}}}, "dtype": {"type": "DT_FLOAT"}}}, {"name": "unknown_58", "op": "Const", "attr": {"value": {"tensor": {"dtype": "DT_FLOAT", "tensorShape": {"dim": [{"size": "8"}]}}}, "dtype": {"type": "DT_FLOAT"}}}, {"name": "unknown_59", "op": "Const", "attr": {"value": {"tensor": {"dtype": "DT_FLOAT", "tensorShape": {"dim": [{"size": "3"}, {"size": "3"}, {"size": "8"}, {"size": "8"}]}}}, "dtype": {"type": "DT_FLOAT"}}}, {"name": "unknown_60", "op": "Const", "attr": {"value": {"tensor": {"dtype": "DT_FLOAT", "tensorShape": {"dim": [{"size": "8"}]}}}, "dtype": {"type": "DT_FLOAT"}}}, {"name": "unknown_61", "op": "Const", "attr": {"value": {"tensor": {"dtype": "DT_FLOAT", "tensorShape": {"dim": [{"size": "3"}, {"size": "3"}, {"size": "8"}, {"size": "8"}]}}}, "dtype": {"type": "DT_FLOAT"}}}, {"name": "unknown_62", "op": "Const", "attr": {"value": {"tensor": {"dtype": "DT_FLOAT", "tensorShape": {"dim": [{"size": "8"}]}}}, "dtype": {"type": "DT_FLOAT"}}}, {"name": "unknown_63", "op": "Const", "attr": {"value": {"tensor": {"dtype": "DT_FLOAT", "tensorShape": {"dim": [{"size": "3"}, {"size": "3"}, {"size": "8"}, {"size": "8"}]}}}, "dtype": {"type": "DT_FLOAT"}}}, {"name": "unknown_65", "op": "Const", "attr": {"value": {"tensor": {"dtype": "DT_FLOAT", "tensorShape": {"dim": [{"size": "8"}]}}}, "dtype": {"type": "DT_FLOAT"}}}, {"name": "unknown_31", "op": "Const", "attr": {"value": {"tensor": {"dtype": "DT_FLOAT", "tensorShape": {"dim": [{"size": "1"}, {"size": "1"}, {"size": "16"}, {"size": "8"}]}}}, "dtype": {"type": "DT_FLOAT"}}}, {"name": "unknown_32", "op": "Const", "attr": {"value": {"tensor": {"dtype": "DT_FLOAT", "tensorShape": {"dim": [{"size": "8"}]}}}, "dtype": {"type": "DT_FLOAT"}}}, {"name": "unknown_33", "op": "Const", "attr": {"value": {"tensor": {"dtype": "DT_FLOAT", "tensorShape": {"dim": [{"size": "3"}, {"size": "3"}, {"size": "8"}, {"size": "8"}]}}}, "dtype": {"type": "DT_FLOAT"}}}, {"name": "unknown_34", "op": "Const", "attr": {"value": {"tensor": {"dtype": "DT_FLOAT", "tensorShape": {"dim": [{"size": "8"}]}}}, "dtype": {"type": "DT_FLOAT"}}}, {"name": "unknown_35", "op": "Const", "attr": {"value": {"tensor": {"dtype": "DT_FLOAT", "tensorShape": {"dim": [{"size": "3"}, {"size": "3"}, {"size": "8"}, {"size": "8"}]}}}, "dtype": {"type": "DT_FLOAT"}}}, {"name": "unknown_36", "op": "Const", "attr": {"value": {"tensor": {"dtype": "DT_FLOAT", "tensorShape": {"dim": [{"size": "8"}]}}}, "dtype": {"type": "DT_FLOAT"}}}, {"name": "unknown_37", "op": "Const", "attr": {"value": {"tensor": {"dtype": "DT_FLOAT", "tensorShape": {"dim": [{"size": "3"}, {"size": "3"}, {"size": "8"}, {"size": "8"}]}}}, "dtype": {"type": "DT_FLOAT"}}}, {"name": "unknown_38", "op": "Const", "attr": {"value": {"tensor": {"dtype": "DT_FLOAT", "tensorShape": {"dim": [{"size": "8"}]}}}, "dtype": {"type": "DT_FLOAT"}}}, {"name": "unknown_39", "op": "Const", "attr": {"value": {"tensor": {"dtype": "DT_FLOAT", "tensorShape": {"dim": [{"size": "3"}, {"size": "3"}, {"size": "8"}, {"size": "8"}]}}}, "dtype": {"type": "DT_FLOAT"}}}, {"name": "unknown_40", "op": "Const", "attr": {"value": {"tensor": {"dtype": "DT_FLOAT", "tensorShape": {"dim": [{"size": "8"}]}}}, "dtype": {"type": "DT_FLOAT"}}}, {"name": "unknown_41", "op": "Const", "attr": {"value": {"tensor": {"dtype": "DT_FLOAT", "tensorShape": {"dim": [{"size": "3"}, {"size": "3"}, {"size": "8"}, {"size": "8"}]}}}, "dtype": {"type": "DT_FLOAT"}}}, {"name": "unknown_42", "op": "Const", "attr": {"value": {"tensor": {"dtype": "DT_FLOAT", "tensorShape": {"dim": [{"size": "8"}]}}}, "dtype": {"type": "DT_FLOAT"}}}, {"name": "unknown_43", "op": "Const", "attr": {"value": {"tensor": {"dtype": "DT_FLOAT", "tensorShape": {"dim": [{"size": "3"}, {"size": "3"}, {"size": "8"}, {"size": "8"}]}}}, "dtype": {"type": "DT_FLOAT"}}}, {"name": "unknown_45", "op": "Const", "attr": {"value": {"tensor": {"dtype": "DT_FLOAT", "tensorShape": {"dim": [{"size": "8"}]}}}, "dtype": {"type": "DT_FLOAT"}}}, {"name": "unknown_20", "op": "Const", "attr": {"value": {"tensor": {"dtype": "DT_INT64", "tensorShape": {"dim": [{"size": "4"}]}}}, "dtype": {"type": "DT_INT64"}}}, {"name": "unknown_21", "op": "Const", "attr": {"value": {"tensor": {"dtype": "DT_INT64", "tensorShape": {"dim": [{"size": "4"}]}}}, "dtype": {"type": "DT_INT64"}}}, {"name": "StatefulPartitionedCall/model_17/tf.strided_slice_3/ones_like", "op": "Const", "attr": {"value": {"tensor": {"dtype": "DT_INT64", "tensorShape": {"dim": [{"size": "4"}]}}}, "dtype": {"type": "DT_INT64"}}}, {"name": "unknown_0", "op": "Const", "attr": {"value": {"tensor": {"dtype": "DT_INT64", "tensorShape": {"dim": [{"size": "4"}]}}}, "dtype": {"type": "DT_INT64"}}}, {"name": "unknown_1", "op": "Const", "attr": {"value": {"tensor": {"dtype": "DT_INT64", "tensorShape": {"dim": [{"size": "4"}]}}}, "dtype": {"type": "DT_INT64"}}}, {"name": "StatefulPartitionedCall/model_17/tf.strided_slice/StridedSlice/strides", "op": "Const", "attr": {"value": {"tensor": {"dtype": "DT_INT64", "tensorShape": {"dim": [{"size": "4"}]}}}, "dtype": {"type": "DT_INT64"}}}, {"name": "unknown_2", "op": "Const", "attr": {"value": {"tensor": {"dtype": "DT_INT64", "tensorShape": {"dim": [{"size": "4"}]}}}, "dtype": {"type": "DT_INT64"}}}, {"name": "unknown_3", "op": "Const", "attr": {"value": {"tensor": {"dtype": "DT_INT64", "tensorShape": {"dim": [{"size": "4"}]}}}, "dtype": {"type": "DT_INT64"}}}, {"name": "StatefulPartitionedCall/model_17/tf.strided_slice_1/StridedSlice/strides", "op": "Const", "attr": {"value": {"tensor": {"dtype": "DT_INT64", "tensorShape": {"dim": [{"size": "4"}]}}}, "dtype": {"type": "DT_INT64"}}}, {"name": "unknown", "op": "Const", "attr": {"value": {"tensor": {"dtype": "DT_INT32", "tensorShape": {"dim": [{"size": "2"}]}}}, "dtype": {"type": "DT_INT32"}}}, {"name": "unknown_4", "op": "Const", "attr": {"value": {"tensor": {"dtype": "DT_INT64", "tensorShape": {"dim": [{"size": "4"}]}}}, "dtype": {"type": "DT_INT64"}}}, {"name": "unknown_5", "op": "Const", "attr": {"value": {"tensor": {"dtype": "DT_INT64", "tensorShape": {"dim": [{"size": "4"}]}}}, "dtype": {"type": "DT_INT64"}}}, {"name": "StatefulPartitionedCall/model_17/tf.strided_slice_2/StridedSlice/strides", "op": "Const", "attr": {"value": {"tensor": {"dtype": "DT_INT64", "tensorShape": {"dim": [{"size": "4"}]}}}, "dtype": {"type": "DT_INT64"}}}, {"name": "StatefulPartitionedCall/model_17/tf.concat/concat/axis", "op": "Const", "attr": {"value": {"tensor": {"dtype": "DT_INT32", "tensorShape": {}}}, "dtype": {"type": "DT_INT32"}}}, {"name": "StatefulPartitionedCall/model_17/tf.math.multiply_1/Mul/y", "op": "Const", "attr": {"value": {"tensor": {"dtype": "DT_FLOAT", "tensorShape": {}}}, "dtype": {"type": "DT_FLOAT"}}}, {"name": "unknown_6", "op": "Const", "attr": {"value": {"tensor": {"dtype": "DT_INT32", "tensorShape": {"dim": [{"size": "4"}, {"size": "2"}]}}}, "dtype": {"type": "DT_INT32"}}}, {"name": "unknown_7", "op": "Const", "attr": {"value": {"tensor": {"dtype": "DT_FLOAT", "tensorShape": {"dim": [{"size": "3"}, {"size": "3"}, {"size": "3"}, {"size": "8"}]}}}, "dtype": {"type": "DT_FLOAT"}}}, {"name": "unknown_8", "op": "Const", "attr": {"value": {"tensor": {"dtype": "DT_FLOAT", "tensorShape": {"dim": [{"size": "8"}]}}}, "dtype": {"type": "DT_FLOAT"}}}, {"name": "unknown_9", "op": "Const", "attr": {"value": {"tensor": {"dtype": "DT_INT32", "tensorShape": {"dim": [{"size": "4"}, {"size": "2"}]}}}, "dtype": {"type": "DT_INT32"}}}, {"name": "unknown_10", "op": "Const", "attr": {"value": {"tensor": {"dtype": "DT_FLOAT", "tensorShape": {"dim": [{"size": "3"}, {"size": "3"}, {"size": "8"}, {"size": "16"}]}}}, "dtype": {"type": "DT_FLOAT"}}}, {"name": "unknown_11", "op": "Const", "attr": {"value": {"tensor": {"dtype": "DT_FLOAT", "tensorShape": {"dim": [{"size": "16"}]}}}, "dtype": {"type": "DT_FLOAT"}}}, {"name": "unknown_12", "op": "Const", "attr": {"value": {"tensor": {"dtype": "DT_FLOAT", "tensorShape": {"dim": [{"size": "1"}, {"size": "1"}, {"size": "16"}, {"size": "16"}]}}}, "dtype": {"type": "DT_FLOAT"}}}, {"name": "unknown_13", "op": "Const", "attr": {"value": {"tensor": {"dtype": "DT_FLOAT", "tensorShape": {"dim": [{"size": "16"}]}}}, "dtype": {"type": "DT_FLOAT"}}}, {"name": "unknown_14", "op": "Const", "attr": {"value": {"tensor": {"dtype": "DT_INT64", "tensorShape": {"dim": [{"size": "4"}]}}}, "dtype": {"type": "DT_INT64"}}}, {"name": "unknown_15", "op": "Const", "attr": {"value": {"tensor": {"dtype": "DT_INT64", "tensorShape": {"dim": [{"size": "4"}]}}}, "dtype": {"type": "DT_INT64"}}}, {"name": "StatefulPartitionedCall/model_17/tf.strided_slice_4/ones_like", "op": "Const", "attr": {"value": {"tensor": {"dtype": "DT_INT64", "tensorShape": {"dim": [{"size": "4"}]}}}, "dtype": {"type": "DT_INT64"}}}, {"name": "unknown_16", "op": "Const", "attr": {"value": {"tensor": {"dtype": "DT_FLOAT", "tensorShape": {"dim": [{"size": "3"}, {"size": "3"}, {"size": "8"}, {"size": "8"}]}}}, "dtype": {"type": "DT_FLOAT"}}}, {"name": "unknown_17", "op": "Const", "attr": {"value": {"tensor": {"dtype": "DT_FLOAT", "tensorShape": {"dim": [{"size": "8"}]}}}, "dtype": {"type": "DT_FLOAT"}}}, {"name": "unknown_18", "op": "Const", "attr": {"value": {"tensor": {"dtype": "DT_FLOAT", "tensorShape": {"dim": [{"size": "3"}, {"size": "3"}, {"size": "8"}, {"size": "8"}]}}}, "dtype": {"type": "DT_FLOAT"}}}, {"name": "unknown_19", "op": "Const", "attr": {"value": {"tensor": {"dtype": "DT_FLOAT", "tensorShape": {"dim": [{"size": "8"}]}}}, "dtype": {"type": "DT_FLOAT"}}}, {"name": "StatefulPartitionedCall/model_17/tf.concat_1/concat/axis", "op": "Const", "attr": {"value": {"tensor": {"dtype": "DT_INT32", "tensorShape": {}}}, "dtype": {"type": "DT_INT32"}}}, {"name": "unknown_22", "op": "Const", "attr": {"value": {"tensor": {"dtype": "DT_FLOAT", "tensorShape": {"dim": [{"size": "1"}, {"size": "1"}, {"size": "32"}, {"size": "16"}]}}}, "dtype": {"type": "DT_FLOAT"}}}, {"name": "unknown_23", "op": "Const", "attr": {"value": {"tensor": {"dtype": "DT_FLOAT", "tensorShape": {"dim": [{"size": "16"}]}}}, "dtype": {"type": "DT_FLOAT"}}}, {"name": "unknown_24", "op": "Const", "attr": {"value": {"tensor": {"dtype": "DT_INT32", "tensorShape": {"dim": [{"size": "4"}, {"size": "2"}]}}}, "dtype": {"type": "DT_INT32"}}}, {"name": "unknown_25", "op": "Const", "attr": {"value": {"tensor": {"dtype": "DT_FLOAT", "tensorShape": {"dim": [{"size": "3"}, {"size": "3"}, {"size": "16"}, {"size": "32"}]}}}, "dtype": {"type": "DT_FLOAT"}}}, {"name": "unknown_26", "op": "Const", "attr": {"value": {"tensor": {"dtype": "DT_FLOAT", "tensorShape": {"dim": [{"size": "32"}]}}}, "dtype": {"type": "DT_FLOAT"}}}, {"name": "unknown_27", "op": "Const", "attr": {"value": {"tensor": {"dtype": "DT_FLOAT", "tensorShape": {"dim": [{"size": "1"}, {"size": "1"}, {"size": "32"}, {"size": "32"}]}}}, "dtype": {"type": "DT_FLOAT"}}}, {"name": "unknown_28", "op": "Const", "attr": {"value": {"tensor": {"dtype": "DT_FLOAT", "tensorShape": {"dim": [{"size": "32"}]}}}, "dtype": {"type": "DT_FLOAT"}}}, {"name": "unknown_29", "op": "Const", "attr": {"value": {"tensor": {"dtype": "DT_INT64", "tensorShape": {"dim": [{"size": "4"}]}}}, "dtype": {"type": "DT_INT64"}}}, {"name": "unknown_30", "op": "Const", "attr": {"value": {"tensor": {"dtype": "DT_INT64", "tensorShape": {"dim": [{"size": "4"}]}}}, "dtype": {"type": "DT_INT64"}}}, {"name": "StatefulPartitionedCall/model_17/tf.strided_slice_6/ones_like", "op": "Const", "attr": {"value": {"tensor": {"dtype": "DT_INT64", "tensorShape": {"dim": [{"size": "4"}]}}}, "dtype": {"type": "DT_INT64"}}}, {"name": "unknown_44", "op": "Const", "attr": {"value": {"tensor": {"dtype": "DT_FLOAT", "tensorShape": {"dim": [{"size": "1"}, {"size": "1"}, {"size": "16"}, {"size": "8"}]}}}, "dtype": {"type": "DT_FLOAT"}}}, {"name": "unknown_46", "op": "Const", "attr": {"value": {"tensor": {"dtype": "DT_FLOAT", "tensorShape": {"dim": [{"size": "8"}]}}}, "dtype": {"type": "DT_FLOAT"}}}, {"name": "StatefulPartitionedCall/model_17/tf.concat_2/concat/axis", "op": "Const", "attr": {"value": {"tensor": {"dtype": "DT_INT32", "tensorShape": {}}}, "dtype": {"type": "DT_INT32"}}}, {"name": "unknown_47", "op": "Const", "attr": {"value": {"tensor": {"dtype": "DT_FLOAT", "tensorShape": {"dim": [{"size": "1"}, {"size": "1"}, {"size": "16"}, {"size": "16"}]}}}, "dtype": {"type": "DT_FLOAT"}}}, {"name": "unknown_48", "op": "Const", "attr": {"value": {"tensor": {"dtype": "DT_FLOAT", "tensorShape": {"dim": [{"size": "16"}]}}}, "dtype": {"type": "DT_FLOAT"}}}, {"name": "unknown_49", "op": "Const", "attr": {"value": {"tensor": {"dtype": "DT_FLOAT", "tensorShape": {"dim": [{"size": "3"}, {"size": "3"}, {"size": "16"}, {"size": "16"}]}}}, "dtype": {"type": "DT_FLOAT"}}}, {"name": "unknown_50", "op": "Const", "attr": {"value": {"tensor": {"dtype": "DT_FLOAT", "tensorShape": {"dim": [{"size": "16"}]}}}, "dtype": {"type": "DT_FLOAT"}}}, {"name": "unknown_64", "op": "Const", "attr": {"value": {"tensor": {"dtype": "DT_FLOAT", "tensorShape": {"dim": [{"size": "1"}, {"size": "1"}, {"size": "16"}, {"size": "8"}]}}}, "dtype": {"type": "DT_FLOAT"}}}, {"name": "unknown_66", "op": "Const", "attr": {"value": {"tensor": {"dtype": "DT_FLOAT", "tensorShape": {"dim": [{"size": "8"}]}}}, "dtype": {"type": "DT_FLOAT"}}}, {"name": "StatefulPartitionedCall/model_17/tf.concat_3/concat/axis", "op": "Const", "attr": {"value": {"tensor": {"dtype": "DT_INT32", "tensorShape": {}}}, "dtype": {"type": "DT_INT32"}}}, {"name": "unknown_67", "op": "Const", "attr": {"value": {"tensor": {"dtype": "DT_FLOAT", "tensorShape": {"dim": [{"size": "1"}, {"size": "1"}, {"size": "16"}, {"size": "16"}]}}}, "dtype": {"type": "DT_FLOAT"}}}, {"name": "unknown_68", "op": "Const", "attr": {"value": {"tensor": {"dtype": "DT_FLOAT", "tensorShape": {"dim": [{"size": "16"}]}}}, "dtype": {"type": "DT_FLOAT"}}}, {"name": "unknown_69", "op": "Const", "attr": {"value": {"tensor": {"dtype": "DT_FLOAT", "tensorShape": {"dim": [{"size": "3"}, {"size": "3"}, {"size": "16"}, {"size": "16"}]}}}, "dtype": {"type": "DT_FLOAT"}}}, {"name": "unknown_70", "op": "Const", "attr": {"value": {"tensor": {"dtype": "DT_FLOAT", "tensorShape": {"dim": [{"size": "16"}]}}}, "dtype": {"type": "DT_FLOAT"}}}, {"name": "StatefulPartitionedCall/model_17/tf.concat_4/concat/axis", "op": "Const", "attr": {"value": {"tensor": {"dtype": "DT_INT32", "tensorShape": {}}}, "dtype": {"type": "DT_INT32"}}}, {"name": "unknown_73", "op": "Const", "attr": {"value": {"tensor": {"dtype": "DT_FLOAT", "tensorShape": {"dim": [{"size": "1"}, {"size": "1"}, {"size": "64"}, {"size": "32"}]}}}, "dtype": {"type": "DT_FLOAT"}}}, {"name": "unknown_74", "op": "Const", "attr": {"value": {"tensor": {"dtype": "DT_FLOAT", "tensorShape": {"dim": [{"size": "32"}]}}}, "dtype": {"type": "DT_FLOAT"}}}, {"name": "unknown_75", "op": "Const", "attr": {"value": {"tensor": {"dtype": "DT_INT32", "tensorShape": {"dim": [{"size": "4"}, {"size": "2"}]}}}, "dtype": {"type": "DT_INT32"}}}, {"name": "unknown_76", "op": "Const", "attr": {"value": {"tensor": {"dtype": "DT_FLOAT", "tensorShape": {"dim": [{"size": "3"}, {"size": "3"}, {"size": "32"}, {"size": "48"}]}}}, "dtype": {"type": "DT_FLOAT"}}}, {"name": "unknown_77", "op": "Const", "attr": {"value": {"tensor": {"dtype": "DT_FLOAT", "tensorShape": {"dim": [{"size": "48"}]}}}, "dtype": {"type": "DT_FLOAT"}}}, {"name": "unknown_78", "op": "Const", "attr": {"value": {"tensor": {"dtype": "DT_FLOAT", "tensorShape": {"dim": [{"size": "1"}, {"size": "1"}, {"size": "48"}, {"size": "48"}]}}}, "dtype": {"type": "DT_FLOAT"}}}, {"name": "unknown_79", "op": "Const", "attr": {"value": {"tensor": {"dtype": "DT_FLOAT", "tensorShape": {"dim": [{"size": "48"}]}}}, "dtype": {"type": "DT_FLOAT"}}}, {"name": "unknown_80", "op": "Const", "attr": {"value": {"tensor": {"dtype": "DT_INT64", "tensorShape": {"dim": [{"size": "4"}]}}}, "dtype": {"type": "DT_INT64"}}}, {"name": "unknown_81", "op": "Const", "attr": {"value": {"tensor": {"dtype": "DT_INT64", "tensorShape": {"dim": [{"size": "4"}]}}}, "dtype": {"type": "DT_INT64"}}}, {"name": "StatefulPartitionedCall/model_17/tf.strided_slice_8/ones_like", "op": "Const", "attr": {"value": {"tensor": {"dtype": "DT_INT64", "tensorShape": {"dim": [{"size": "4"}]}}}, "dtype": {"type": "DT_INT64"}}}, {"name": "unknown_95", "op": "Const", "attr": {"value": {"tensor": {"dtype": "DT_FLOAT", "tensorShape": {"dim": [{"size": "1"}, {"size": "1"}, {"size": "24"}, {"size": "12"}]}}}, "dtype": {"type": "DT_FLOAT"}}}, {"name": "unknown_97", "op": "Const", "attr": {"value": {"tensor": {"dtype": "DT_FLOAT", "tensorShape": {"dim": [{"size": "12"}]}}}, "dtype": {"type": "DT_FLOAT"}}}, {"name": "StatefulPartitionedCall/model_17/tf.concat_5/concat/axis", "op": "Const", "attr": {"value": {"tensor": {"dtype": "DT_INT32", "tensorShape": {}}}, "dtype": {"type": "DT_INT32"}}}, {"name": "unknown_98", "op": "Const", "attr": {"value": {"tensor": {"dtype": "DT_FLOAT", "tensorShape": {"dim": [{"size": "1"}, {"size": "1"}, {"size": "24"}, {"size": "24"}]}}}, "dtype": {"type": "DT_FLOAT"}}}, {"name": "unknown_99", "op": "Const", "attr": {"value": {"tensor": {"dtype": "DT_FLOAT", "tensorShape": {"dim": [{"size": "24"}]}}}, "dtype": {"type": "DT_FLOAT"}}}, {"name": "unknown_100", "op": "Const", "attr": {"value": {"tensor": {"dtype": "DT_FLOAT", "tensorShape": {"dim": [{"size": "3"}, {"size": "3"}, {"size": "24"}, {"size": "24"}]}}}, "dtype": {"type": "DT_FLOAT"}}}, {"name": "unknown_101", "op": "Const", "attr": {"value": {"tensor": {"dtype": "DT_FLOAT", "tensorShape": {"dim": [{"size": "24"}]}}}, "dtype": {"type": "DT_FLOAT"}}}, {"name": "unknown_115", "op": "Const", "attr": {"value": {"tensor": {"dtype": "DT_FLOAT", "tensorShape": {"dim": [{"size": "1"}, {"size": "1"}, {"size": "24"}, {"size": "12"}]}}}, "dtype": {"type": "DT_FLOAT"}}}, {"name": "unknown_117", "op": "Const", "attr": {"value": {"tensor": {"dtype": "DT_FLOAT", "tensorShape": {"dim": [{"size": "12"}]}}}, "dtype": {"type": "DT_FLOAT"}}}, {"name": "StatefulPartitionedCall/model_17/tf.concat_6/concat/axis", "op": "Const", "attr": {"value": {"tensor": {"dtype": "DT_INT32", "tensorShape": {}}}, "dtype": {"type": "DT_INT32"}}}, {"name": "unknown_118", "op": "Const", "attr": {"value": {"tensor": {"dtype": "DT_FLOAT", "tensorShape": {"dim": [{"size": "1"}, {"size": "1"}, {"size": "24"}, {"size": "24"}]}}}, "dtype": {"type": "DT_FLOAT"}}}, {"name": "unknown_119", "op": "Const", "attr": {"value": {"tensor": {"dtype": "DT_FLOAT", "tensorShape": {"dim": [{"size": "24"}]}}}, "dtype": {"type": "DT_FLOAT"}}}, {"name": "unknown_120", "op": "Const", "attr": {"value": {"tensor": {"dtype": "DT_FLOAT", "tensorShape": {"dim": [{"size": "3"}, {"size": "3"}, {"size": "24"}, {"size": "24"}]}}}, "dtype": {"type": "DT_FLOAT"}}}, {"name": "unknown_121", "op": "Const", "attr": {"value": {"tensor": {"dtype": "DT_FLOAT", "tensorShape": {"dim": [{"size": "24"}]}}}, "dtype": {"type": "DT_FLOAT"}}}, {"name": "StatefulPartitionedCall/model_17/tf.concat_7/concat/axis", "op": "Const", "attr": {"value": {"tensor": {"dtype": "DT_INT32", "tensorShape": {}}}, "dtype": {"type": "DT_INT32"}}}, {"name": "unknown_124", "op": "Const", "attr": {"value": {"tensor": {"dtype": "DT_FLOAT", "tensorShape": {"dim": [{"size": "1"}, {"size": "1"}, {"size": "96"}, {"size": "48"}]}}}, "dtype": {"type": "DT_FLOAT"}}}, {"name": "unknown_125", "op": "Const", "attr": {"value": {"tensor": {"dtype": "DT_FLOAT", "tensorShape": {"dim": [{"size": "48"}]}}}, "dtype": {"type": "DT_FLOAT"}}}, {"name": "unknown_126", "op": "Const", "attr": {"value": {"tensor": {"dtype": "DT_INT32", "tensorShape": {"dim": [{"size": "4"}, {"size": "2"}]}}}, "dtype": {"type": "DT_INT32"}}}, {"name": "unknown_127", "op": "Const", "attr": {"value": {"tensor": {"dtype": "DT_FLOAT", "tensorShape": {"dim": [{"size": "3"}, {"size": "3"}, {"size": "48"}, {"size": "64"}]}}}, "dtype": {"type": "DT_FLOAT"}}}, {"name": "unknown_128", "op": "Const", "attr": {"value": {"tensor": {"dtype": "DT_FLOAT", "tensorShape": {"dim": [{"size": "64"}]}}}, "dtype": {"type": "DT_FLOAT"}}}, {"name": "unknown_129", "op": "Const", "attr": {"value": {"tensor": {"dtype": "DT_FLOAT", "tensorShape": {"dim": [{"size": "1"}, {"size": "1"}, {"size": "64"}, {"size": "64"}]}}}, "dtype": {"type": "DT_FLOAT"}}}, {"name": "unknown_130", "op": "Const", "attr": {"value": {"tensor": {"dtype": "DT_FLOAT", "tensorShape": {"dim": [{"size": "64"}]}}}, "dtype": {"type": "DT_FLOAT"}}}, {"name": "unknown_131", "op": "Const", "attr": {"value": {"tensor": {"dtype": "DT_INT64", "tensorShape": {"dim": [{"size": "4"}]}}}, "dtype": {"type": "DT_INT64"}}}, {"name": "unknown_132", "op": "Const", "attr": {"value": {"tensor": {"dtype": "DT_INT64", "tensorShape": {"dim": [{"size": "4"}]}}}, "dtype": {"type": "DT_INT64"}}}, {"name": "StatefulPartitionedCall/model_17/tf.strided_slice_10/ones_like", "op": "Const", "attr": {"value": {"tensor": {"dtype": "DT_INT64", "tensorShape": {"dim": [{"size": "4"}]}}}, "dtype": {"type": "DT_INT64"}}}, {"name": "unknown_146", "op": "Const", "attr": {"value": {"tensor": {"dtype": "DT_FLOAT", "tensorShape": {"dim": [{"size": "1"}, {"size": "1"}, {"size": "32"}, {"size": "16"}]}}}, "dtype": {"type": "DT_FLOAT"}}}, {"name": "unknown_148", "op": "Const", "attr": {"value": {"tensor": {"dtype": "DT_FLOAT", "tensorShape": {"dim": [{"size": "16"}]}}}, "dtype": {"type": "DT_FLOAT"}}}, {"name": "StatefulPartitionedCall/model_17/tf.concat_8/concat/axis", "op": "Const", "attr": {"value": {"tensor": {"dtype": "DT_INT32", "tensorShape": {}}}, "dtype": {"type": "DT_INT32"}}}, {"name": "unknown_149", "op": "Const", "attr": {"value": {"tensor": {"dtype": "DT_FLOAT", "tensorShape": {"dim": [{"size": "1"}, {"size": "1"}, {"size": "32"}, {"size": "32"}]}}}, "dtype": {"type": "DT_FLOAT"}}}, {"name": "unknown_150", "op": "Const", "attr": {"value": {"tensor": {"dtype": "DT_FLOAT", "tensorShape": {"dim": [{"size": "32"}]}}}, "dtype": {"type": "DT_FLOAT"}}}, {"name": "unknown_151", "op": "Const", "attr": {"value": {"tensor": {"dtype": "DT_FLOAT", "tensorShape": {"dim": [{"size": "3"}, {"size": "3"}, {"size": "32"}, {"size": "32"}]}}}, "dtype": {"type": "DT_FLOAT"}}}, {"name": "unknown_152", "op": "Const", "attr": {"value": {"tensor": {"dtype": "DT_FLOAT", "tensorShape": {"dim": [{"size": "32"}]}}}, "dtype": {"type": "DT_FLOAT"}}}, {"name": "unknown_166", "op": "Const", "attr": {"value": {"tensor": {"dtype": "DT_FLOAT", "tensorShape": {"dim": [{"size": "1"}, {"size": "1"}, {"size": "32"}, {"size": "16"}]}}}, "dtype": {"type": "DT_FLOAT"}}}, {"name": "unknown_168", "op": "Const", "attr": {"value": {"tensor": {"dtype": "DT_FLOAT", "tensorShape": {"dim": [{"size": "16"}]}}}, "dtype": {"type": "DT_FLOAT"}}}, {"name": "StatefulPartitionedCall/model_17/tf.concat_9/concat/axis", "op": "Const", "attr": {"value": {"tensor": {"dtype": "DT_INT32", "tensorShape": {}}}, "dtype": {"type": "DT_INT32"}}}, {"name": "unknown_169", "op": "Const", "attr": {"value": {"tensor": {"dtype": "DT_FLOAT", "tensorShape": {"dim": [{"size": "1"}, {"size": "1"}, {"size": "32"}, {"size": "32"}]}}}, "dtype": {"type": "DT_FLOAT"}}}, {"name": "unknown_170", "op": "Const", "attr": {"value": {"tensor": {"dtype": "DT_FLOAT", "tensorShape": {"dim": [{"size": "32"}]}}}, "dtype": {"type": "DT_FLOAT"}}}, {"name": "unknown_171", "op": "Const", "attr": {"value": {"tensor": {"dtype": "DT_FLOAT", "tensorShape": {"dim": [{"size": "3"}, {"size": "3"}, {"size": "32"}, {"size": "32"}]}}}, "dtype": {"type": "DT_FLOAT"}}}, {"name": "unknown_172", "op": "Const", "attr": {"value": {"tensor": {"dtype": "DT_FLOAT", "tensorShape": {"dim": [{"size": "32"}]}}}, "dtype": {"type": "DT_FLOAT"}}}, {"name": "StatefulPartitionedCall/model_17/tf.concat_10/concat/axis", "op": "Const", "attr": {"value": {"tensor": {"dtype": "DT_INT32", "tensorShape": {}}}, "dtype": {"type": "DT_INT32"}}}, {"name": "unknown_175", "op": "Const", "attr": {"value": {"tensor": {"dtype": "DT_FLOAT", "tensorShape": {"dim": [{"size": "1"}, {"size": "1"}, {"size": "128"}, {"size": "64"}]}}}, "dtype": {"type": "DT_FLOAT"}}}, {"name": "unknown_176", "op": "Const", "attr": {"value": {"tensor": {"dtype": "DT_FLOAT", "tensorShape": {"dim": [{"size": "64"}]}}}, "dtype": {"type": "DT_FLOAT"}}}, {"name": "unknown_177", "op": "Const", "attr": {"value": {"tensor": {"dtype": "DT_FLOAT", "tensorShape": {"dim": [{"size": "1"}, {"size": "1"}, {"size": "64"}, {"size": "32"}]}}}, "dtype": {"type": "DT_FLOAT"}}}, {"name": "unknown_178", "op": "Const", "attr": {"value": {"tensor": {"dtype": "DT_FLOAT", "tensorShape": {"dim": [{"size": "32"}]}}}, "dtype": {"type": "DT_FLOAT"}}}, {"name": "StatefulPartitionedCall/model_17/tf.concat_11/concat/axis", "op": "Const", "attr": {"value": {"tensor": {"dtype": "DT_INT32", "tensorShape": {}}}, "dtype": {"type": "DT_INT32"}}}, {"name": "unknown_179", "op": "Const", "attr": {"value": {"tensor": {"dtype": "DT_FLOAT", "tensorShape": {"dim": [{"size": "1"}, {"size": "1"}, {"size": "128"}, {"size": "64"}]}}}, "dtype": {"type": "DT_FLOAT"}}}, {"name": "unknown_180", "op": "Const", "attr": {"value": {"tensor": {"dtype": "DT_FLOAT", "tensorShape": {"dim": [{"size": "64"}]}}}, "dtype": {"type": "DT_FLOAT"}}}, {"name": "StatefulPartitionedCall/model_17/tf.concat_25/concat/axis", "op": "Const", "attr": {"value": {"tensor": {"dtype": "DT_INT32", "tensorShape": {}}}, "dtype": {"type": "DT_INT32"}}}, {"name": "unknown_331", "op": "Const", "attr": {"value": {"tensor": {"dtype": "DT_FLOAT", "tensorShape": {"dim": [{"size": "1"}, {"size": "1"}, {"size": "96"}, {"size": "64"}]}}}, "dtype": {"type": "DT_FLOAT"}}}, {"name": "unknown_332", "op": "Const", "attr": {"value": {"tensor": {"dtype": "DT_FLOAT", "tensorShape": {"dim": [{"size": "64"}]}}}, "dtype": {"type": "DT_FLOAT"}}}, {"name": "unknown_333", "op": "Const", "attr": {"value": {"tensor": {"dtype": "DT_INT64", "tensorShape": {"dim": [{"size": "4"}]}}}, "dtype": {"type": "DT_INT64"}}}, {"name": "unknown_334", "op": "Const", "attr": {"value": {"tensor": {"dtype": "DT_INT64", "tensorShape": {"dim": [{"size": "4"}]}}}, "dtype": {"type": "DT_INT64"}}}, {"name": "StatefulPartitionedCall/model_17/tf.strided_slice_18/ones_like", "op": "Const", "attr": {"value": {"tensor": {"dtype": "DT_INT64", "tensorShape": {"dim": [{"size": "4"}]}}}, "dtype": {"type": "DT_INT64"}}}, {"name": "unknown_348", "op": "Const", "attr": {"value": {"tensor": {"dtype": "DT_FLOAT", "tensorShape": {"dim": [{"size": "1"}, {"size": "1"}, {"size": "32"}, {"size": "16"}]}}}, "dtype": {"type": "DT_FLOAT"}}}, {"name": "unknown_350", "op": "Const", "attr": {"value": {"tensor": {"dtype": "DT_FLOAT", "tensorShape": {"dim": [{"size": "16"}]}}}, "dtype": {"type": "DT_FLOAT"}}}, {"name": "StatefulPartitionedCall/model_17/tf.concat_27/concat/axis", "op": "Const", "attr": {"value": {"tensor": {"dtype": "DT_INT32", "tensorShape": {}}}, "dtype": {"type": "DT_INT32"}}}, {"name": "unknown_351", "op": "Const", "attr": {"value": {"tensor": {"dtype": "DT_FLOAT", "tensorShape": {"dim": [{"size": "1"}, {"size": "1"}, {"size": "32"}, {"size": "32"}]}}}, "dtype": {"type": "DT_FLOAT"}}}, {"name": "unknown_352", "op": "Const", "attr": {"value": {"tensor": {"dtype": "DT_FLOAT", "tensorShape": {"dim": [{"size": "32"}]}}}, "dtype": {"type": "DT_FLOAT"}}}, {"name": "unknown_353", "op": "Const", "attr": {"value": {"tensor": {"dtype": "DT_FLOAT", "tensorShape": {"dim": [{"size": "3"}, {"size": "3"}, {"size": "32"}, {"size": "32"}]}}}, "dtype": {"type": "DT_FLOAT"}}}, {"name": "unknown_354", "op": "Const", "attr": {"value": {"tensor": {"dtype": "DT_FLOAT", "tensorShape": {"dim": [{"size": "32"}]}}}, "dtype": {"type": "DT_FLOAT"}}}, {"name": "unknown_368", "op": "Const", "attr": {"value": {"tensor": {"dtype": "DT_FLOAT", "tensorShape": {"dim": [{"size": "1"}, {"size": "1"}, {"size": "32"}, {"size": "16"}]}}}, "dtype": {"type": "DT_FLOAT"}}}, {"name": "unknown_370", "op": "Const", "attr": {"value": {"tensor": {"dtype": "DT_FLOAT", "tensorShape": {"dim": [{"size": "16"}]}}}, "dtype": {"type": "DT_FLOAT"}}}, {"name": "StatefulPartitionedCall/model_17/tf.concat_28/concat/axis", "op": "Const", "attr": {"value": {"tensor": {"dtype": "DT_INT32", "tensorShape": {}}}, "dtype": {"type": "DT_INT32"}}}, {"name": "unknown_371", "op": "Const", "attr": {"value": {"tensor": {"dtype": "DT_FLOAT", "tensorShape": {"dim": [{"size": "1"}, {"size": "1"}, {"size": "32"}, {"size": "32"}]}}}, "dtype": {"type": "DT_FLOAT"}}}, {"name": "unknown_372", "op": "Const", "attr": {"value": {"tensor": {"dtype": "DT_FLOAT", "tensorShape": {"dim": [{"size": "32"}]}}}, "dtype": {"type": "DT_FLOAT"}}}, {"name": "unknown_373", "op": "Const", "attr": {"value": {"tensor": {"dtype": "DT_FLOAT", "tensorShape": {"dim": [{"size": "3"}, {"size": "3"}, {"size": "32"}, {"size": "32"}]}}}, "dtype": {"type": "DT_FLOAT"}}}, {"name": "unknown_374", "op": "Const", "attr": {"value": {"tensor": {"dtype": "DT_FLOAT", "tensorShape": {"dim": [{"size": "32"}]}}}, "dtype": {"type": "DT_FLOAT"}}}, {"name": "StatefulPartitionedCall/model_17/tf.concat_29/concat/axis", "op": "Const", "attr": {"value": {"tensor": {"dtype": "DT_INT32", "tensorShape": {}}}, "dtype": {"type": "DT_INT32"}}}, {"name": "unknown_377", "op": "Const", "attr": {"value": {"tensor": {"dtype": "DT_FLOAT", "tensorShape": {"dim": [{"size": "1"}, {"size": "1"}, {"size": "128"}, {"size": "64"}]}}}, "dtype": {"type": "DT_FLOAT"}}}, {"name": "unknown_378", "op": "Const", "attr": {"value": {"tensor": {"dtype": "DT_FLOAT", "tensorShape": {"dim": [{"size": "64"}]}}}, "dtype": {"type": "DT_FLOAT"}}}, {"name": "unknown_379", "op": "Const", "attr": {"value": {"tensor": {"dtype": "DT_FLOAT", "tensorShape": {"dim": [{"size": "3"}, {"size": "3"}, {"size": "64"}, {"size": "32"}]}}}, "dtype": {"type": "DT_FLOAT"}}}, {"name": "unknown_385", "op": "Const", "attr": {"value": {"tensor": {"dtype": "DT_FLOAT", "tensorShape": {"dim": [{"size": "32"}]}}}, "dtype": {"type": "DT_FLOAT"}}}, {"name": "unknown_391", "op": "Const", "attr": {"value": {"tensor": {"dtype": "DT_FLOAT", "tensorShape": {"dim": [{"size": "3"}, {"size": "3"}, {"size": "32"}, {"size": "32"}]}}}, "dtype": {"type": "DT_FLOAT"}}}, {"name": "unknown_397", "op": "Const", "attr": {"value": {"tensor": {"dtype": "DT_FLOAT", "tensorShape": {"dim": [{"size": "32"}]}}}, "dtype": {"type": "DT_FLOAT"}}}, {"name": "unknown_403", "op": "Const", "attr": {"value": {"tensor": {"dtype": "DT_FLOAT", "tensorShape": {"dim": [{"size": "1"}, {"size": "1"}, {"size": "32"}, {"size": "15"}]}}}, "dtype": {"type": "DT_FLOAT"}}}, {"name": "unknown_410", "op": "Const", "attr": {"value": {"tensor": {"dtype": "DT_FLOAT", "tensorShape": {"dim": [{"size": "15"}]}}}, "dtype": {"type": "DT_FLOAT"}}}, {"name": "StatefulPartitionedCall/model_17/tf.concat_30/concat/axis", "op": "Const", "attr": {"value": {"tensor": {"dtype": "DT_INT32", "tensorShape": {}}}, "dtype": {"type": "DT_INT32"}}}, {"name": "StatefulPartitionedCall/model_17/tf.compat.v1.transpose_12/transpose/perm", "op": "Const", "attr": {"value": {"tensor": {"dtype": "DT_INT32", "tensorShape": {"dim": [{"size": "4"}]}}}, "dtype": {"type": "DT_INT32"}}}, {"name": "StatefulPartitionedCall/model_17/tf.reshape_8/Reshape/shape", "op": "Const", "attr": {"value": {"tensor": {"dtype": "DT_INT32", "tensorShape": {"dim": [{"size": "3"}]}}}, "dtype": {"type": "DT_INT32"}}}, {"name": "StatefulPartitionedCall/model_17/tf.concat_31/concat/axis", "op": "Const", "attr": {"value": {"tensor": {"dtype": "DT_INT32", "tensorShape": {}}}, "dtype": {"type": "DT_INT32"}}}, {"name": "StatefulPartitionedCall/model_17/tf.strided_slice_20/StridedSlice/begin", "op": "Const", "attr": {"value": {"tensor": {"dtype": "DT_INT32", "tensorShape": {"dim": [{"size": "3"}]}}}, "dtype": {"type": "DT_INT32"}}}, {"name": "StatefulPartitionedCall/model_17/tf.strided_slice_20/StridedSlice/end", "op": "Const", "attr": {"value": {"tensor": {"dtype": "DT_INT32", "tensorShape": {"dim": [{"size": "3"}]}}}, "dtype": {"type": "DT_INT32"}}}, {"name": "StatefulPartitionedCall/model_17/tf.strided_slice_20/ones_like", "op": "Const", "attr": {"value": {"tensor": {"dtype": "DT_INT32", "tensorShape": {"dim": [{"size": "3"}]}}}, "dtype": {"type": "DT_INT32"}}}, {"name": "StatefulPartitionedCall/model_17/tf.concat_36/concat/axis", "op": "Const", "attr": {"value": {"tensor": {"dtype": "DT_INT32", "tensorShape": {}}}, "dtype": {"type": "DT_INT32"}}}, {"name": "unknown_428", "op": "Const", "attr": {"value": {"tensor": {"dtype": "DT_INT64", "tensorShape": {"dim": [{"size": "3"}]}}}, "dtype": {"type": "DT_INT64"}}}, {"name": "unknown_429", "op": "Const", "attr": {"value": {"tensor": {"dtype": "DT_INT64", "tensorShape": {"dim": [{"size": "3"}]}}}, "dtype": {"type": "DT_INT64"}}}, {"name": "StatefulPartitionedCall/model_17/tf.strided_slice_22/StridedSlice/strides", "op": "Const", "attr": {"value": {"tensor": {"dtype": "DT_INT64", "tensorShape": {"dim": [{"size": "3"}]}}}, "dtype": {"type": "DT_INT64"}}}, {"name": "StatefulPartitionedCall/model_17/tf.strided_slice_43/StridedSlice/begin", "op": "Const", "attr": {"value": {"tensor": {"dtype": "DT_INT32", "tensorShape": {"dim": [{"size": "2"}]}}}, "dtype": {"type": "DT_INT32"}}}, {"name": "StatefulPartitionedCall/model_17/tf.strided_slice_43/StridedSlice/end", "op": "Const", "attr": {"value": {"tensor": {"dtype": "DT_INT32", "tensorShape": {"dim": [{"size": "2"}]}}}, "dtype": {"type": "DT_INT32"}}}, {"name": "StatefulPartitionedCall/model_17/tf.strided_slice_43/ones_like", "op": "Const", "attr": {"value": {"tensor": {"dtype": "DT_INT32", "tensorShape": {"dim": [{"size": "2"}]}}}, "dtype": {"type": "DT_INT32"}}}, {"name": "StatefulPartitionedCall/model_17/tf.compat.v1.squeeze_9/Squeeze", "op": "Const", "attr": {"value": {"tensor": {"dtype": "DT_INT32", "tensorShape": {}}}, "dtype": {"type": "DT_INT32"}}}, {"name": "unknown_443", "op": "Const", "attr": {"value": {"tensor": {"dtype": "DT_FLOAT", "tensorShape": {}}}, "dtype": {"type": "DT_FLOAT"}}}, {"name": "unknown_444", "op": "Const", "attr": {"value": {"tensor": {"dtype": "DT_FLOAT", "tensorShape": {}}}, "dtype": {"type": "DT_FLOAT"}}}, {"name": "StatefulPartitionedCall/model_17/tf.compat.v1.transpose_43/transpose/perm", "op": "Const", "attr": {"value": {"tensor": {"dtype": "DT_INT32", "tensorShape": {"dim": [{"size": "2"}]}}}, "dtype": {"type": "DT_INT32"}}}, {"name": "unknown_509", "op": "Const", "attr": {"value": {"tensor": {"dtype": "DT_INT64", "tensorShape": {}}}, "dtype": {"type": "DT_INT64"}}}, {"name": "unknown_508", "op": "Const", "attr": {"value": {"tensor": {"dtype": "DT_INT32", "tensorShape": {"dim": [{"size": "2"}, {"size": "2"}]}}}, "dtype": {"type": "DT_INT32"}}}, {"name": "unknown_511", "op": "Const", "attr": {"value": {"tensor": {"dtype": "DT_INT64", "tensorShape": {}}}, "dtype": {"type": "DT_INT64"}}}, {"name": "StatefulPartitionedCall/model_17/tf.concat_56/concat/axis", "op": "Const", "attr": {"value": {"tensor": {"dtype": "DT_INT32", "tensorShape": {}}}, "dtype": {"type": "DT_INT32"}}}, {"name": "unknown_513", "op": "Const", "attr": {"value": {"tensor": {"dtype": "DT_INT64", "tensorShape": {"dim": [{"size": "2"}]}}}, "dtype": {"type": "DT_INT64"}}}, {"name": "StatefulPartitionedCall/model_17/tf.compat.v1.gather/GatherV2/axis", "op": "Const", "attr": {"value": {"tensor": {"dtype": "DT_INT32", "tensorShape": {}}}, "dtype": {"type": "DT_INT32"}}}, {"name": "unknown_514", "op": "Const", "attr": {"value": {"tensor": {"dtype": "DT_INT64", "tensorShape": {"dim": [{"size": "2"}]}}}, "dtype": {"type": "DT_INT64"}}}, {"name": "StatefulPartitionedCall/model_17/batchno_classid_score_x1y1x2y2/concat/axis", "op": "Const", "attr": {"value": {"tensor": {"dtype": "DT_INT32", "tensorShape": {}}}, "dtype": {"type": "DT_INT32"}}}, {"name": "input_bgr", "op": "Placeholder", "attr": {"shape": {"shape": {"dim": [{"size": "1"}, {"size": "-1"}, {"size": "-1"}, {"size": "3"}]}}, "dtype": {"type": "DT_FLOAT"}}}, {"name": "StatefulPartitionedCall/model_17/tf.compat.v1.image.resize_nearest_neighbor/ResizeNearestNeighbor", "op": "ResizeNearestNeighbor", "input": ["input_bgr", "unknown"], "attr": {"T": {"type": "DT_FLOAT"}, "align_corners": {"b": false}, "half_pixel_centers": {"b": false}}}, {"name": "StatefulPartitionedCall/model_17/tf.strided_slice/StridedSlice", "op": "StridedSlice", "input": ["StatefulPartitionedCall/model_17/tf.compat.v1.image.resize_nearest_neighbor/ResizeNearestNeighbor", "unknown_0", "unknown_1", "StatefulPartitionedCall/model_17/tf.strided_slice/StridedSlice/strides"], "attr": {"shrink_axis_mask": {"i": "0"}, "new_axis_mask": {"i": "0"}, "Index": {"type": "DT_INT64"}, "begin_mask": {"i": "7"}, "end_mask": {"i": "7"}, "T": {"type": "DT_FLOAT"}, "ellipsis_mask": {"i": "0"}}}, {"name": "StatefulPartitionedCall/model_17/tf.strided_slice_1/StridedSlice", "op": "StridedSlice", "input": ["StatefulPartitionedCall/model_17/tf.compat.v1.image.resize_nearest_neighbor/ResizeNearestNeighbor", "unknown_2", "unknown_3", "StatefulPartitionedCall/model_17/tf.strided_slice_1/StridedSlice/strides"], "attr": {"shrink_axis_mask": {"i": "0"}, "new_axis_mask": {"i": "0"}, "Index": {"type": "DT_INT64"}, "begin_mask": {"i": "7"}, "T": {"type": "DT_FLOAT"}, "end_mask": {"i": "7"}, "ellipsis_mask": {"i": "0"}}}, {"name": "StatefulPartitionedCall/model_17/tf.strided_slice_2/StridedSlice", "op": "StridedSlice", "input": ["StatefulPartitionedCall/model_17/tf.compat.v1.image.resize_nearest_neighbor/ResizeNearestNeighbor", "unknown_4", "unknown_5", "StatefulPartitionedCall/model_17/tf.strided_slice_2/StridedSlice/strides"], "attr": {"shrink_axis_mask": {"i": "0"}, "new_axis_mask": {"i": "0"}, "Index": {"type": "DT_INT64"}, "begin_mask": {"i": "15"}, "end_mask": {"i": "7"}, "T": {"type": "DT_FLOAT"}, "ellipsis_mask": {"i": "0"}}}, {"name": "StatefulPartitionedCall/model_17/tf.concat/concat", "op": "ConcatV2", "input": ["StatefulPartitionedCall/model_17/tf.strided_slice/StridedSlice", "StatefulPartitionedCall/model_17/tf.strided_slice_1/StridedSlice", "StatefulPartitionedCall/model_17/tf.strided_slice_2/StridedSlice", "StatefulPartitionedCall/model_17/tf.concat/concat/axis"], "attr": {"N": {"i": "3"}, "Tidx": {"type": "DT_INT32"}, "T": {"type": "DT_FLOAT"}}}, {"name": "StatefulPartitionedCall/model_17/tf.math.multiply_1/Mul", "op": "Mul", "input": ["StatefulPartitionedCall/model_17/tf.concat/concat", "StatefulPartitionedCall/model_17/tf.math.multiply_1/Mul/y"], "attr": {"T": {"type": "DT_FLOAT"}}}, {"name": "StatefulPartitionedCall/model_17/tf.compat.v1.pad/Pad", "op": "Pad", "input": ["StatefulPartitionedCall/model_17/tf.math.multiply_1/Mul", "unknown_6"], "attr": {"Tpaddings": {"type": "DT_INT32"}, "T": {"type": "DT_FLOAT"}}}, {"name": "StatefulPartitionedCall/model_17/tf.math.add/Add", "op": "_FusedConv2D", "input": ["StatefulPartitionedCall/model_17/tf.compat.v1.pad/Pad", "unknown_7", "unknown_8"], "device": "/device:CPU:0", "attr": {"num_host_args": {"i": "0"}, "data_format": {"s": "TkhXQw=="}, "filter_format": {"s": "SFdJTw=="}, "strides": {"list": {"i": ["1", "2", "2", "1"]}}, "num_args": {"i": "1"}, "fused_ops": {"list": {"s": ["Qmlhc0FkZA=="]}}, "TArgs": {"list": {"type": ["DT_FLOAT"]}}, "padding": {"s": "VkFMSUQ="}, "use_cudnn_on_gpu": {"b": true}, "leakyrelu_alpha": {"f": 0.2}, "epsilon": {"f": 0.0}, "T": {"type": "DT_FLOAT"}, "explicit_paddings": {"list": {}}, "dilations": {"list": {"i": ["1", "1", "1", "1"]}}}}, {"name": "StatefulPartitionedCall/model_17/tf.math.sigmoid/Sigmoid", "op": "Sigmoid", "input": ["StatefulPartitionedCall/model_17/tf.math.add/Add"], "attr": {"T": {"type": "DT_FLOAT"}}}, {"name": "StatefulPartitionedCall/model_17/tf.math.multiply_4/Mul", "op": "Mul", "input": ["StatefulPartitionedCall/model_17/tf.math.add/Add", "StatefulPartitionedCall/model_17/tf.math.sigmoid/Sigmoid"], "attr": {"T": {"type": "DT_FLOAT"}}}, {"name": "StatefulPartitionedCall/model_17/tf.compat.v1.pad_1/Pad", "op": "Pad", "input": ["StatefulPartitionedCall/model_17/tf.math.multiply_4/Mul", "unknown_9"], "attr": {"Tpaddings": {"type": "DT_INT32"}, "T": {"type": "DT_FLOAT"}}}, {"name": "StatefulPartitionedCall/model_17/tf.math.add_1/Add", "op": "_FusedConv2D", "input": ["StatefulPartitionedCall/model_17/tf.compat.v1.pad_1/Pad", "unknown_10", "unknown_11"], "device": "/device:CPU:0", "attr": {"num_host_args": {"i": "0"}, "data_format": {"s": "TkhXQw=="}, "filter_format": {"s": "SFdJTw=="}, "strides": {"list": {"i": ["1", "2", "2", "1"]}}, "num_args": {"i": "1"}, "fused_ops": {"list": {"s": ["Qmlhc0FkZA=="]}}, "TArgs": {"list": {"type": ["DT_FLOAT"]}}, "padding": {"s": "VkFMSUQ="}, "use_cudnn_on_gpu": {"b": true}, "leakyrelu_alpha": {"f": 0.2}, "epsilon": {"f": 0.0}, "T": {"type": "DT_FLOAT"}, "explicit_paddings": {"list": {}}, "dilations": {"list": {"i": ["1", "1", "1", "1"]}}}}, {"name": "StatefulPartitionedCall/model_17/tf.math.sigmoid_1/Sigmoid", "op": "Sigmoid", "input": ["StatefulPartitionedCall/model_17/tf.math.add_1/Add"], "attr": {"T": {"type": "DT_FLOAT"}}}, {"name": "StatefulPartitionedCall/model_17/tf.math.multiply_7/Mul", "op": "Mul", "input": ["StatefulPartitionedCall/model_17/tf.math.add_1/Add", "StatefulPartitionedCall/model_17/tf.math.sigmoid_1/Sigmoid"], "attr": {"T": {"type": "DT_FLOAT"}}}, {"name": "StatefulPartitionedCall/model_17/tf.math.add_2/Add", "op": "_FusedConv2D", "input": ["StatefulPartitionedCall/model_17/tf.math.multiply_7/Mul", "unknown_12", "unknown_13"], "device": "/device:CPU:0", "attr": {"num_host_args": {"i": "0"}, "data_format": {"s": "TkhXQw=="}, "filter_format": {"s": "SFdJTw=="}, "strides": {"list": {"i": ["1", "1", "1", "1"]}}, "num_args": {"i": "1"}, "fused_ops": {"list": {"s": ["Qmlhc0FkZA=="]}}, "TArgs": {"list": {"type": ["DT_FLOAT"]}}, "padding": {"s": "U0FNRQ=="}, "use_cudnn_on_gpu": {"b": true}, "leakyrelu_alpha": {"f": 0.2}, "epsilon": {"f": 0.0}, "T": {"type": "DT_FLOAT"}, "explicit_paddings": {"list": {}}, "dilations": {"list": {"i": ["1", "1", "1", "1"]}}}}, {"name": "StatefulPartitionedCall/model_17/tf.math.sigmoid_2/Sigmoid", "op": "Sigmoid", "input": ["StatefulPartitionedCall/model_17/tf.math.add_2/Add"], "attr": {"T": {"type": "DT_FLOAT"}}}, {"name": "StatefulPartitionedCall/model_17/tf.math.multiply_10/Mul", "op": "Mul", "input": ["StatefulPartitionedCall/model_17/tf.math.add_2/Add", "StatefulPartitionedCall/model_17/tf.math.sigmoid_2/Sigmoid"], "attr": {"T": {"type": "DT_FLOAT"}}}, {"name": "StatefulPartitionedCall/model_17/tf.strided_slice_3/StridedSlice", "op": "StridedSlice", "input": ["StatefulPartitionedCall/model_17/tf.math.multiply_10/Mul", "unknown_20", "unknown_21", "StatefulPartitionedCall/model_17/tf.strided_slice_3/ones_like"], "attr": {"shrink_axis_mask": {"i": "0"}, "new_axis_mask": {"i": "0"}, "Index": {"type": "DT_INT64"}, "begin_mask": {"i": "15"}, "end_mask": {"i": "7"}, "T": {"type": "DT_FLOAT"}, "ellipsis_mask": {"i": "0"}}}, {"name": "StatefulPartitionedCall/model_17/tf.strided_slice_4/StridedSlice", "op": "StridedSlice", "input": ["StatefulPartitionedCall/model_17/tf.math.multiply_10/Mul", "unknown_14", "unknown_15", "StatefulPartitionedCall/model_17/tf.strided_slice_4/ones_like"], "attr": {"shrink_axis_mask": {"i": "0"}, "new_axis_mask": {"i": "0"}, "Index": {"type": "DT_INT64"}, "begin_mask": {"i": "7"}, "T": {"type": "DT_FLOAT"}, "end_mask": {"i": "7"}, "ellipsis_mask": {"i": "0"}}}, {"name": "StatefulPartitionedCall/model_17/tf.math.add_3/Add", "op": "_FusedConv2D", "input": ["StatefulPartitionedCall/model_17/tf.strided_slice_4/StridedSlice", "unknown_16", "unknown_17"], "device": "/device:CPU:0", "attr": {"num_host_args": {"i": "0"}, "data_format": {"s": "TkhXQw=="}, "filter_format": {"s": "SFdJTw=="}, "fused_ops": {"list": {"s": ["Qmlhc0FkZA=="]}}, "num_args": {"i": "1"}, "strides": {"list": {"i": ["1", "1", "1", "1"]}}, "TArgs": {"list": {"type": ["DT_FLOAT"]}}, "padding": {"s": "U0FNRQ=="}, "use_cudnn_on_gpu": {"b": true}, "leakyrelu_alpha": {"f": 0.2}, "epsilon": {"f": 0.0}, "T": {"type": "DT_FLOAT"}, "explicit_paddings": {"list": {}}, "dilations": {"list": {"i": ["1", "1", "1", "1"]}}}}, {"name": "StatefulPartitionedCall/model_17/tf.math.sigmoid_3/Sigmoid", "op": "Sigmoid", "input": ["StatefulPartitionedCall/model_17/tf.math.add_3/Add"], "attr": {"T": {"type": "DT_FLOAT"}}}, {"name": "StatefulPartitionedCall/model_17/tf.math.multiply_13/Mul", "op": "Mul", "input": ["StatefulPartitionedCall/model_17/tf.math.add_3/Add", "StatefulPartitionedCall/model_17/tf.math.sigmoid_3/Sigmoid"], "attr": {"T": {"type": "DT_FLOAT"}}}, {"name": "StatefulPartitionedCall/model_17/tf.math.add_4/Add", "op": "_FusedConv2D", "input": ["StatefulPartitionedCall/model_17/tf.math.multiply_13/Mul", "unknown_18", "unknown_19"], "device": "/device:CPU:0", "attr": {"num_host_args": {"i": "0"}, "data_format": {"s": "TkhXQw=="}, "filter_format": {"s": "SFdJTw=="}, "strides": {"list": {"i": ["1", "1", "1", "1"]}}, "num_args": {"i": "1"}, "fused_ops": {"list": {"s": ["Qmlhc0FkZA=="]}}, "TArgs": {"list": {"type": ["DT_FLOAT"]}}, "padding": {"s": "U0FNRQ=="}, "use_cudnn_on_gpu": {"b": true}, "leakyrelu_alpha": {"f": 0.2}, "epsilon": {"f": 0.0}, "T": {"type": "DT_FLOAT"}, "explicit_paddings": {"list": {}}, "dilations": {"list": {"i": ["1", "1", "1", "1"]}}}}, {"name": "StatefulPartitionedCall/model_17/tf.math.sigmoid_4/Sigmoid", "op": "Sigmoid", "input": ["StatefulPartitionedCall/model_17/tf.math.add_4/Add"], "attr": {"T": {"type": "DT_FLOAT"}}}, {"name": "StatefulPartitionedCall/model_17/tf.math.multiply_16/Mul", "op": "Mul", "input": ["StatefulPartitionedCall/model_17/tf.math.add_4/Add", "StatefulPartitionedCall/model_17/tf.math.sigmoid_4/Sigmoid"], "attr": {"T": {"type": "DT_FLOAT"}}}, {"name": "StatefulPartitionedCall/model_17/tf.concat_1/concat", "op": "ConcatV2", "input": ["StatefulPartitionedCall/model_17/tf.strided_slice_3/StridedSlice", "StatefulPartitionedCall/model_17/tf.strided_slice_4/StridedSlice", "StatefulPartitionedCall/model_17/tf.math.multiply_13/Mul", "StatefulPartitionedCall/model_17/tf.math.multiply_16/Mul", "StatefulPartitionedCall/model_17/tf.concat_1/concat/axis"], "attr": {"N": {"i": "4"}, "T": {"type": "DT_FLOAT"}, "Tidx": {"type": "DT_INT32"}}}, {"name": "StatefulPartitionedCall/model_17/tf.math.add_5/Add", "op": "_FusedConv2D", "input": ["StatefulPartitionedCall/model_17/tf.concat_1/concat", "unknown_22", "unknown_23"], "device": "/device:CPU:0", "attr": {"num_host_args": {"i": "0"}, "data_format": {"s": "TkhXQw=="}, "filter_format": {"s": "SFdJTw=="}, "fused_ops": {"list": {"s": ["Qmlhc0FkZA=="]}}, "num_args": {"i": "1"}, "strides": {"list": {"i": ["1", "1", "1", "1"]}}, "TArgs": {"list": {"type": ["DT_FLOAT"]}}, "padding": {"s": "U0FNRQ=="}, "use_cudnn_on_gpu": {"b": true}, "leakyrelu_alpha": {"f": 0.2}, "epsilon": {"f": 0.0}, "T": {"type": "DT_FLOAT"}, "explicit_paddings": {"list": {}}, "dilations": {"list": {"i": ["1", "1", "1", "1"]}}}}, {"name": "StatefulPartitionedCall/model_17/tf.math.sigmoid_5/Sigmoid", "op": "Sigmoid", "input": ["StatefulPartitionedCall/model_17/tf.math.add_5/Add"], "attr": {"T": {"type": "DT_FLOAT"}}}, {"name": "StatefulPartitionedCall/model_17/tf.math.multiply_19/Mul", "op": "Mul", "input": ["StatefulPartitionedCall/model_17/tf.math.add_5/Add", "StatefulPartitionedCall/model_17/tf.math.sigmoid_5/Sigmoid"], "attr": {"T": {"type": "DT_FLOAT"}}}, {"name": "StatefulPartitionedCall/model_17/tf.compat.v1.nn.avg_pool/AvgPool", "op": "AvgPool", "input": ["StatefulPartitionedCall/model_17/tf.math.multiply_19/Mul"], "attr": {"padding": {"s": "VkFMSUQ="}, "data_format": {"s": "TkhXQw=="}, "T": {"type": "DT_FLOAT"}, "ksize": {"list": {"i": ["1", "2", "2", "1"]}}, "strides": {"list": {"i": ["1", "1", "1", "1"]}}}}, {"name": "StatefulPartitionedCall/model_17/tf.compat.v1.pad_2/Pad", "op": "Pad", "input": ["StatefulPartitionedCall/model_17/tf.compat.v1.nn.avg_pool/AvgPool", "unknown_24"], "attr": {"Tpaddings": {"type": "DT_INT32"}, "T": {"type": "DT_FLOAT"}}}, {"name": "StatefulPartitionedCall/model_17/tf.math.add_6/Add", "op": "_FusedConv2D", "input": ["StatefulPartitionedCall/model_17/tf.compat.v1.pad_2/Pad", "unknown_25", "unknown_26"], "device": "/device:CPU:0", "attr": {"num_host_args": {"i": "0"}, "data_format": {"s": "TkhXQw=="}, "filter_format": {"s": "SFdJTw=="}, "fused_ops": {"list": {"s": ["Qmlhc0FkZA=="]}}, "num_args": {"i": "1"}, "strides": {"list": {"i": ["1", "2", "2", "1"]}}, "TArgs": {"list": {"type": ["DT_FLOAT"]}}, "padding": {"s": "VkFMSUQ="}, "use_cudnn_on_gpu": {"b": true}, "leakyrelu_alpha": {"f": 0.2}, "epsilon": {"f": 0.0}, "T": {"type": "DT_FLOAT"}, "explicit_paddings": {"list": {}}, "dilations": {"list": {"i": ["1", "1", "1", "1"]}}}}, {"name": "StatefulPartitionedCall/model_17/tf.math.sigmoid_6/Sigmoid", "op": "Sigmoid", "input": ["StatefulPartitionedCall/model_17/tf.math.add_6/Add"], "attr": {"T": {"type": "DT_FLOAT"}}}, {"name": "StatefulPartitionedCall/model_17/tf.math.multiply_22/Mul", "op": "Mul", "input": ["StatefulPartitionedCall/model_17/tf.math.add_6/Add", "StatefulPartitionedCall/model_17/tf.math.sigmoid_6/Sigmoid"], "attr": {"T": {"type": "DT_FLOAT"}}}, {"name": "StatefulPartitionedCall/model_17/tf.math.add_7/Add", "op": "_FusedConv2D", "input": ["StatefulPartitionedCall/model_17/tf.math.multiply_22/Mul", "unknown_27", "unknown_28"], "device": "/device:CPU:0", "attr": {"num_host_args": {"i": "0"}, "data_format": {"s": "TkhXQw=="}, "filter_format": {"s": "SFdJTw=="}, "fused_ops": {"list": {"s": ["Qmlhc0FkZA=="]}}, "num_args": {"i": "1"}, "strides": {"list": {"i": ["1", "1", "1", "1"]}}, "TArgs": {"list": {"type": ["DT_FLOAT"]}}, "padding": {"s": "U0FNRQ=="}, "use_cudnn_on_gpu": {"b": true}, "leakyrelu_alpha": {"f": 0.2}, "epsilon": {"f": 0.0}, "T": {"type": "DT_FLOAT"}, "explicit_paddings": {"list": {}}, "dilations": {"list": {"i": ["1", "1", "1", "1"]}}}}, {"name": "StatefulPartitionedCall/model_17/tf.math.sigmoid_7/Sigmoid", "op": "Sigmoid", "input": ["StatefulPartitionedCall/model_17/tf.math.add_7/Add"], "attr": {"T": {"type": "DT_FLOAT"}}}, {"name": "StatefulPartitionedCall/model_17/tf.math.multiply_25/Mul", "op": "Mul", "input": ["StatefulPartitionedCall/model_17/tf.math.add_7/Add", "StatefulPartitionedCall/model_17/tf.math.sigmoid_7/Sigmoid"], "attr": {"T": {"type": "DT_FLOAT"}}}, {"name": "StatefulPartitionedCall/model_17/tf.strided_slice_5/StridedSlice", "op": "StridedSlice", "input": ["StatefulPartitionedCall/model_17/tf.math.multiply_25/Mul", "unknown_71", "unknown_72", "StatefulPartitionedCall/model_17/tf.strided_slice_5/ones_like"], "attr": {"shrink_axis_mask": {"i": "0"}, "Index": {"type": "DT_INT64"}, "new_axis_mask": {"i": "0"}, "begin_mask": {"i": "15"}, "end_mask": {"i": "7"}, "T": {"type": "DT_FLOAT"}, "ellipsis_mask": {"i": "0"}}}, {"name": "StatefulPartitionedCall/model_17/tf.strided_slice_6/StridedSlice", "op": "StridedSlice", "input": ["StatefulPartitionedCall/model_17/tf.math.multiply_25/Mul", "unknown_29", "unknown_30", "StatefulPartitionedCall/model_17/tf.strided_slice_6/ones_like"], "attr": {"shrink_axis_mask": {"i": "0"}, "Index": {"type": "DT_INT64"}, "new_axis_mask": {"i": "0"}, "begin_mask": {"i": "7"}, "T": {"type": "DT_FLOAT"}, "end_mask": {"i": "7"}, "ellipsis_mask": {"i": "0"}}}, {"name": "StatefulPartitionedCall/model_17/tf.math.add_8/Add", "op": "_FusedConv2D", "input": ["StatefulPartitionedCall/model_17/tf.strided_slice_6/StridedSlice", "unknown_31", "unknown_32"], "device": "/device:CPU:0", "attr": {"num_host_args": {"i": "0"}, "data_format": {"s": "TkhXQw=="}, "filter_format": {"s": "SFdJTw=="}, "fused_ops": {"list": {"s": ["Qmlhc0FkZA=="]}}, "num_args": {"i": "1"}, "strides": {"list": {"i": ["1", "1", "1", "1"]}}, "TArgs": {"list": {"type": ["DT_FLOAT"]}}, "padding": {"s": "U0FNRQ=="}, "use_cudnn_on_gpu": {"b": true}, "leakyrelu_alpha": {"f": 0.2}, "epsilon": {"f": 0.0}, "T": {"type": "DT_FLOAT"}, "explicit_paddings": {"list": {}}, "dilations": {"list": {"i": ["1", "1", "1", "1"]}}}}, {"name": "StatefulPartitionedCall/model_17/tf.math.add_9/Add", "op": "_FusedConv2D", "input": ["StatefulPartitionedCall/model_17/tf.strided_slice_6/StridedSlice", "unknown_44", "unknown_46"], "device": "/device:CPU:0", "attr": {"num_host_args": {"i": "0"}, "data_format": {"s": "TkhXQw=="}, "filter_format": {"s": "SFdJTw=="}, "strides": {"list": {"i": ["1", "1", "1", "1"]}}, "num_args": {"i": "1"}, "fused_ops": {"list": {"s": ["Qmlhc0FkZA=="]}}, "TArgs": {"list": {"type": ["DT_FLOAT"]}}, "padding": {"s": "U0FNRQ=="}, "use_cudnn_on_gpu": {"b": true}, "leakyrelu_alpha": {"f": 0.2}, "epsilon": {"f": 0.0}, "T": {"type": "DT_FLOAT"}, "explicit_paddings": {"list": {}}, "dilations": {"list": {"i": ["1", "1", "1", "1"]}}}}, {"name": "StatefulPartitionedCall/model_17/tf.math.sigmoid_8/Sigmoid", "op": "Sigmoid", "input": ["StatefulPartitionedCall/model_17/tf.math.add_8/Add"], "attr": {"T": {"type": "DT_FLOAT"}}}, {"name": "StatefulPartitionedCall/model_17/tf.math.sigmoid_9/Sigmoid", "op": "Sigmoid", "input": ["StatefulPartitionedCall/model_17/tf.math.add_9/Add"], "attr": {"T": {"type": "DT_FLOAT"}}}, {"name": "StatefulPartitionedCall/model_17/tf.math.multiply_28/Mul", "op": "Mul", "input": ["StatefulPartitionedCall/model_17/tf.math.add_8/Add", "StatefulPartitionedCall/model_17/tf.math.sigmoid_8/Sigmoid"], "attr": {"T": {"type": "DT_FLOAT"}}}, {"name": "StatefulPartitionedCall/model_17/tf.math.multiply_31/Mul", "op": "Mul", "input": ["StatefulPartitionedCall/model_17/tf.math.add_9/Add", "StatefulPartitionedCall/model_17/tf.math.sigmoid_9/Sigmoid"], "attr": {"T": {"type": "DT_FLOAT"}}}, {"name": "StatefulPartitionedCall/model_17/tf.math.add_10/Add", "op": "_FusedConv2D", "input": ["StatefulPartitionedCall/model_17/tf.math.multiply_28/Mul", "unknown_33", "unknown_34"], "device": "/device:CPU:0", "attr": {"num_host_args": {"i": "0"}, "data_format": {"s": "TkhXQw=="}, "filter_format": {"s": "SFdJTw=="}, "fused_ops": {"list": {"s": ["Qmlhc0FkZA=="]}}, "num_args": {"i": "1"}, "strides": {"list": {"i": ["1", "1", "1", "1"]}}, "TArgs": {"list": {"type": ["DT_FLOAT"]}}, "padding": {"s": "U0FNRQ=="}, "use_cudnn_on_gpu": {"b": true}, "leakyrelu_alpha": {"f": 0.2}, "epsilon": {"f": 0.0}, "T": {"type": "DT_FLOAT"}, "explicit_paddings": {"list": {}}, "dilations": {"list": {"i": ["1", "1", "1", "1"]}}}}, {"name": "StatefulPartitionedCall/model_17/tf.math.sigmoid_10/Sigmoid", "op": "Sigmoid", "input": ["StatefulPartitionedCall/model_17/tf.math.add_10/Add"], "attr": {"T": {"type": "DT_FLOAT"}}}, {"name": "StatefulPartitionedCall/model_17/tf.math.multiply_34/Mul", "op": "Mul", "input": ["StatefulPartitionedCall/model_17/tf.math.add_10/Add", "StatefulPartitionedCall/model_17/tf.math.sigmoid_10/Sigmoid"], "attr": {"T": {"type": "DT_FLOAT"}}}, {"name": "StatefulPartitionedCall/model_17/tf.math.add_11/Add", "op": "_FusedConv2D", "input": ["StatefulPartitionedCall/model_17/tf.math.multiply_34/Mul", "unknown_35", "unknown_36"], "device": "/device:CPU:0", "attr": {"num_host_args": {"i": "0"}, "data_format": {"s": "TkhXQw=="}, "filter_format": {"s": "SFdJTw=="}, "strides": {"list": {"i": ["1", "1", "1", "1"]}}, "num_args": {"i": "1"}, "fused_ops": {"list": {"s": ["Qmlhc0FkZA=="]}}, "TArgs": {"list": {"type": ["DT_FLOAT"]}}, "padding": {"s": "U0FNRQ=="}, "use_cudnn_on_gpu": {"b": true}, "leakyrelu_alpha": {"f": 0.2}, "epsilon": {"f": 0.0}, "T": {"type": "DT_FLOAT"}, "explicit_paddings": {"list": {}}, "dilations": {"list": {"i": ["1", "1", "1", "1"]}}}}, {"name": "StatefulPartitionedCall/model_17/tf.math.sigmoid_11/Sigmoid", "op": "Sigmoid", "input": ["StatefulPartitionedCall/model_17/tf.math.add_11/Add"], "attr": {"T": {"type": "DT_FLOAT"}}}, {"name": "StatefulPartitionedCall/model_17/tf.math.multiply_37/Mul", "op": "Mul", "input": ["StatefulPartitionedCall/model_17/tf.math.add_11/Add", "StatefulPartitionedCall/model_17/tf.math.sigmoid_11/Sigmoid"], "attr": {"T": {"type": "DT_FLOAT"}}}, {"name": "StatefulPartitionedCall/model_17/tf.math.add_12/Add", "op": "AddV2", "input": ["StatefulPartitionedCall/model_17/tf.math.multiply_28/Mul", "StatefulPartitionedCall/model_17/tf.math.multiply_37/Mul"], "attr": {"T": {"type": "DT_FLOAT"}}}, {"name": "StatefulPartitionedCall/model_17/tf.math.add_13/Add", "op": "_FusedConv2D", "input": ["StatefulPartitionedCall/model_17/tf.math.add_12/Add", "unknown_37", "unknown_38"], "device": "/device:CPU:0", "attr": {"num_host_args": {"i": "0"}, "data_format": {"s": "TkhXQw=="}, "filter_format": {"s": "SFdJTw=="}, "fused_ops": {"list": {"s": ["Qmlhc0FkZA=="]}}, "num_args": {"i": "1"}, "strides": {"list": {"i": ["1", "1", "1", "1"]}}, "TArgs": {"list": {"type": ["DT_FLOAT"]}}, "padding": {"s": "U0FNRQ=="}, "use_cudnn_on_gpu": {"b": true}, "leakyrelu_alpha": {"f": 0.2}, "epsilon": {"f": 0.0}, "T": {"type": "DT_FLOAT"}, "explicit_paddings": {"list": {}}, "dilations": {"list": {"i": ["1", "1", "1", "1"]}}}}, {"name": "StatefulPartitionedCall/model_17/tf.math.sigmoid_12/Sigmoid", "op": "Sigmoid", "input": ["StatefulPartitionedCall/model_17/tf.math.add_13/Add"], "attr": {"T": {"type": "DT_FLOAT"}}}, {"name": "StatefulPartitionedCall/model_17/tf.math.multiply_42/Mul", "op": "Mul", "input": ["StatefulPartitionedCall/model_17/tf.math.add_13/Add", "StatefulPartitionedCall/model_17/tf.math.sigmoid_12/Sigmoid"], "attr": {"T": {"type": "DT_FLOAT"}}}, {"name": "StatefulPartitionedCall/model_17/tf.math.add_14/Add", "op": "_FusedConv2D", "input": ["StatefulPartitionedCall/model_17/tf.math.multiply_42/Mul", "unknown_39", "unknown_40"], "device": "/device:CPU:0", "attr": {"num_host_args": {"i": "0"}, "data_format": {"s": "TkhXQw=="}, "filter_format": {"s": "SFdJTw=="}, "fused_ops": {"list": {"s": ["Qmlhc0FkZA=="]}}, "num_args": {"i": "1"}, "strides": {"list": {"i": ["1", "1", "1", "1"]}}, "TArgs": {"list": {"type": ["DT_FLOAT"]}}, "padding": {"s": "U0FNRQ=="}, "use_cudnn_on_gpu": {"b": true}, "leakyrelu_alpha": {"f": 0.2}, "epsilon": {"f": 0.0}, "T": {"type": "DT_FLOAT"}, "explicit_paddings": {"list": {}}, "dilations": {"list": {"i": ["1", "1", "1", "1"]}}}}, {"name": "StatefulPartitionedCall/model_17/tf.math.sigmoid_13/Sigmoid", "op": "Sigmoid", "input": ["StatefulPartitionedCall/model_17/tf.math.add_14/Add"], "attr": {"T": {"type": "DT_FLOAT"}}}, {"name": "StatefulPartitionedCall/model_17/tf.math.multiply_45/Mul", "op": "Mul", "input": ["StatefulPartitionedCall/model_17/tf.math.add_14/Add", "StatefulPartitionedCall/model_17/tf.math.sigmoid_13/Sigmoid"], "attr": {"T": {"type": "DT_FLOAT"}}}, {"name": "StatefulPartitionedCall/model_17/tf.math.add_15/Add", "op": "AddV2", "input": ["StatefulPartitionedCall/model_17/tf.math.add_12/Add", "StatefulPartitionedCall/model_17/tf.math.multiply_45/Mul"], "attr": {"T": {"type": "DT_FLOAT"}}}, {"name": "StatefulPartitionedCall/model_17/tf.math.add_16/Add", "op": "_FusedConv2D", "input": ["StatefulPartitionedCall/model_17/tf.math.add_15/Add", "unknown_41", "unknown_42"], "device": "/device:CPU:0", "attr": {"num_host_args": {"i": "0"}, "data_format": {"s": "TkhXQw=="}, "filter_format": {"s": "SFdJTw=="}, "fused_ops": {"list": {"s": ["Qmlhc0FkZA=="]}}, "num_args": {"i": "1"}, "strides": {"list": {"i": ["1", "1", "1", "1"]}}, "TArgs": {"list": {"type": ["DT_FLOAT"]}}, "padding": {"s": "U0FNRQ=="}, "use_cudnn_on_gpu": {"b": true}, "leakyrelu_alpha": {"f": 0.2}, "epsilon": {"f": 0.0}, "T": {"type": "DT_FLOAT"}, "explicit_paddings": {"list": {}}, "dilations": {"list": {"i": ["1", "1", "1", "1"]}}}}, {"name": "StatefulPartitionedCall/model_17/tf.math.sigmoid_14/Sigmoid", "op": "Sigmoid", "input": ["StatefulPartitionedCall/model_17/tf.math.add_16/Add"], "attr": {"T": {"type": "DT_FLOAT"}}}, {"name": "StatefulPartitionedCall/model_17/tf.math.multiply_50/Mul", "op": "Mul", "input": ["StatefulPartitionedCall/model_17/tf.math.add_16/Add", "StatefulPartitionedCall/model_17/tf.math.sigmoid_14/Sigmoid"], "attr": {"T": {"type": "DT_FLOAT"}}}, {"name": "StatefulPartitionedCall/model_17/tf.math.add_17/Add", "op": "_FusedConv2D", "input": ["StatefulPartitionedCall/model_17/tf.math.multiply_50/Mul", "unknown_43", "unknown_45"], "device": "/device:CPU:0", "attr": {"num_host_args": {"i": "0"}, "data_format": {"s": "TkhXQw=="}, "filter_format": {"s": "SFdJTw=="}, "strides": {"list": {"i": ["1", "1", "1", "1"]}}, "num_args": {"i": "1"}, "fused_ops": {"list": {"s": ["Qmlhc0FkZA=="]}}, "TArgs": {"list": {"type": ["DT_FLOAT"]}}, "padding": {"s": "U0FNRQ=="}, "use_cudnn_on_gpu": {"b": true}, "leakyrelu_alpha": {"f": 0.2}, "epsilon": {"f": 0.0}, "T": {"type": "DT_FLOAT"}, "explicit_paddings": {"list": {}}, "dilations": {"list": {"i": ["1", "1", "1", "1"]}}}}, {"name": "StatefulPartitionedCall/model_17/tf.math.sigmoid_15/Sigmoid", "op": "Sigmoid", "input": ["StatefulPartitionedCall/model_17/tf.math.add_17/Add"], "attr": {"T": {"type": "DT_FLOAT"}}}, {"name": "StatefulPartitionedCall/model_17/tf.math.multiply_53/Mul", "op": "Mul", "input": ["StatefulPartitionedCall/model_17/tf.math.add_17/Add", "StatefulPartitionedCall/model_17/tf.math.sigmoid_15/Sigmoid"], "attr": {"T": {"type": "DT_FLOAT"}}}, {"name": "StatefulPartitionedCall/model_17/tf.math.add_18/Add", "op": "AddV2", "input": ["StatefulPartitionedCall/model_17/tf.math.add_15/Add", "StatefulPartitionedCall/model_17/tf.math.multiply_53/Mul"], "attr": {"T": {"type": "DT_FLOAT"}}}, {"name": "StatefulPartitionedCall/model_17/tf.concat_2/concat", "op": "ConcatV2", "input": ["StatefulPartitionedCall/model_17/tf.math.add_18/Add", "StatefulPartitionedCall/model_17/tf.math.multiply_31/Mul", "StatefulPartitionedCall/model_17/tf.concat_2/concat/axis"], "attr": {"N": {"i": "2"}, "Tidx": {"type": "DT_INT32"}, "T": {"type": "DT_FLOAT"}}}, {"name": "StatefulPartitionedCall/model_17/tf.math.add_19/Add", "op": "_FusedConv2D", "input": ["StatefulPartitionedCall/model_17/tf.concat_2/concat", "unknown_47", "unknown_48"], "device": "/device:CPU:0", "attr": {"num_host_args": {"i": "0"}, "data_format": {"s": "TkhXQw=="}, "filter_format": {"s": "SFdJTw=="}, "fused_ops": {"list": {"s": ["Qmlhc0FkZA=="]}}, "num_args": {"i": "1"}, "strides": {"list": {"i": ["1", "1", "1", "1"]}}, "TArgs": {"list": {"type": ["DT_FLOAT"]}}, "padding": {"s": "U0FNRQ=="}, "use_cudnn_on_gpu": {"b": true}, "leakyrelu_alpha": {"f": 0.2}, "epsilon": {"f": 0.0}, "T": {"type": "DT_FLOAT"}, "explicit_paddings": {"list": {}}, "dilations": {"list": {"i": ["1", "1", "1", "1"]}}}}, {"name": "StatefulPartitionedCall/model_17/tf.math.sigmoid_16/Sigmoid", "op": "Sigmoid", "input": ["StatefulPartitionedCall/model_17/tf.math.add_19/Add"], "attr": {"T": {"type": "DT_FLOAT"}}}, {"name": "StatefulPartitionedCall/model_17/tf.math.multiply_58/Mul", "op": "Mul", "input": ["StatefulPartitionedCall/model_17/tf.math.add_19/Add", "StatefulPartitionedCall/model_17/tf.math.sigmoid_16/Sigmoid"], "attr": {"T": {"type": "DT_FLOAT"}}}, {"name": "StatefulPartitionedCall/model_17/tf.math.add_20/Add", "op": "_FusedConv2D", "input": ["StatefulPartitionedCall/model_17/tf.math.multiply_58/Mul", "unknown_49", "unknown_50"], "device": "/device:CPU:0", "attr": {"num_host_args": {"i": "0"}, "data_format": {"s": "TkhXQw=="}, "filter_format": {"s": "S…
44/StridedSlice/strides", "shape": [2], "dtype": "int32"}, {"name": "unknown_515", "shape": [2], "dtype": "int32"}, {"name": "unknown_516", "shape": [2], "dtype": "int32"}, {"name": "StatefulPartitionedCall/model_17/tf.strided_slice_45/StridedSlice/strides", "shape": [2], "dtype": "int32"}, {"name": "unknown_512", "shape": [3], "dtype": "int32"}, {"name": "StatefulPartitionedCall/model_17/tf.reshape_15/Reshape/shape", "shape": [2], "dtype": "int32"}, {"name": "StatefulPartitionedCall/model_17/tf.concat_39/concat/axis", "shape": [], "dtype": "int32"}, {"name": "StatefulPartitionedCall/model_17/tf.strided_slice_29/StridedSlice/begin", "shape": [2], "dtype": "int32"}, {"name": "StatefulPartitionedCall/model_17/tf.strided_slice_29/StridedSlice/end", "shape": [2], "dtype": "int32"}, {"name": "StatefulPartitionedCall/model_17/tf.strided_slice_29/ones_like", "shape": [2], "dtype": "int32"}, {"name": "StatefulPartitionedCall/model_17/tf.compat.v1.transpose_29/transpose/perm", "shape": [2], "dtype": "int32"}, {"name": "unknown_454", "shape": [], "dtype": "int32"}, {"name": "unknown_453", "shape": [2, 2], "dtype": "int32"}, {"name": "unknown_459", "shape": [], "dtype": "int32"}, {"name": "StatefulPartitionedCall/model_17/tf.strided_slice_30/StridedSlice/begin", "shape": [2], "dtype": "int32"}, {"name": "StatefulPartitionedCall/model_17/tf.strided_slice_30/StridedSlice/end", "shape": [2], "dtype": "int32"}, {"name": "StatefulPartitionedCall/model_17/tf.strided_slice_30/ones_like", "shape": [2], "dtype": "int32"}, {"name": "StatefulPartitionedCall/model_17/tf.compat.v1.transpose_30/transpose/perm", "shape": [2], "dtype": "int32"}, {"name": "unknown_452", "shape": [], "dtype": "int32"}, {"name": "unknown_451", "shape": [2, 2], "dtype": "int32"}, {"name": "unknown_460", "shape": [], "dtype": "int32"}, {"name": "StatefulPartitionedCall/model_17/tf.strided_slice_31/StridedSlice/begin", "shape": [2], "dtype": "int32"}, {"name": "StatefulPartitionedCall/model_17/tf.strided_slice_31/StridedSlice/end", "shape": [2], "dtype": "int32"}, {"name": "StatefulPartitionedCall/model_17/tf.strided_slice_31/ones_like", "shape": [2], "dtype": "int32"}, {"name": "StatefulPartitionedCall/model_17/tf.compat.v1.transpose_31/transpose/perm", "shape": [2], "dtype": "int32"}, {"name": "unknown_458", "shape": [], "dtype": "int32"}, {"name": "unknown_457", "shape": [2, 2], "dtype": "int32"}, {"name": "unknown_465", "shape": [], "dtype": "int32"}, {"name": "StatefulPartitionedCall/model_17/tf.strided_slice_32/StridedSlice/begin", "shape": [2], "dtype": "int32"}, {"name": "StatefulPartitionedCall/model_17/tf.strided_slice_32/StridedSlice/end", "shape": [2], "dtype": "int32"}, {"name": "StatefulPartitionedCall/model_17/tf.strided_slice_32/ones_like", "shape": [2], "dtype": "int32"}, {"name": "StatefulPartitionedCall/model_17/tf.compat.v1.transpose_32/transpose/perm", "shape": [2], "dtype": "int32"}, {"name": "unknown_464", "shape": [], "dtype": "int32"}, {"name": "unknown_463", "shape": [2, 2], "dtype": "int32"}, {"name": "unknown_470", "shape": [], "dtype": "int32"}, {"name": "StatefulPartitionedCall/model_17/tf.strided_slice_33/StridedSlice/begin", "shape": [2], "dtype": "int32"}, {"name": "StatefulPartitionedCall/model_17/tf.strided_slice_33/StridedSlice/end", "shape": [2], "dtype": "int32"}, {"name": "StatefulPartitionedCall/model_17/tf.strided_slice_33/ones_like", "shape": [2], "dtype": "int32"}, {"name": "StatefulPartitionedCall/model_17/tf.compat.v1.transpose_33/transpose/perm", "shape": [2], "dtype": "int32"}, {"name": "unknown_469", "shape": [], "dtype": "int32"}, {"name": "unknown_468", "shape": [2, 2], "dtype": "int32"}, {"name": "unknown_475", "shape": [], "dtype": "int32"}, {"name": "StatefulPartitionedCall/model_17/tf.strided_slice_34/StridedSlice/begin", "shape": [2], "dtype": "int32"}, {"name": "StatefulPartitionedCall/model_17/tf.strided_slice_34/StridedSlice/end", "shape": [2], "dtype": "int32"}, {"name": "StatefulPartitionedCall/model_17/tf.strided_slice_34/ones_like", "shape": [2], "dtype": "int32"}, {"name": "StatefulPartitionedCall/model_17/tf.compat.v1.transpose_34/transpose/perm", "shape": [2], "dtype": "int32"}, {"name": "unknown_474", "shape": [], "dtype": "int32"}, {"name": "unknown_473", "shape": [2, 2], "dtype": "int32"}, {"name": "unknown_480", "shape": [], "dtype": "int32"}, {"name": "StatefulPartitionedCall/model_17/tf.strided_slice_35/StridedSlice/begin", "shape": [2], "dtype": "int32"}, {"name": "StatefulPartitionedCall/model_17/tf.strided_slice_35/StridedSlice/end", "shape": [2], "dtype": "int32"}, {"name": "StatefulPartitionedCall/model_17/tf.strided_slice_35/ones_like", "shape": [2], "dtype": "int32"}, {"name": "StatefulPartitionedCall/model_17/tf.compat.v1.transpose_35/transpose/perm", "shape": [2], "dtype": "int32"}, {"name": "unknown_479", "shape": [], "dtype": "int32"}, {"name": "unknown_478", "shape": [2, 2], "dtype": "int32"}, {"name": "unknown_485", "shape": [], "dtype": "int32"}, {"name": "StatefulPartitionedCall/model_17/tf.strided_slice_36/StridedSlice/begin", "shape": [2], "dtype": "int32"}, {"name": "StatefulPartitionedCall/model_17/tf.strided_slice_36/StridedSlice/end", "shape": [2], "dtype": "int32"}, {"name": "StatefulPartitionedCall/model_17/tf.strided_slice_36/ones_like", "shape": [2], "dtype": "int32"}, {"name": "StatefulPartitionedCall/model_17/tf.compat.v1.transpose_36/transpose/perm", "shape": [2], "dtype": "int32"}, {"name": "unknown_484", "shape": [], "dtype": "int32"}, {"name": "unknown_483", "shape": [2, 2], "dtype": "int32"}, {"name": "unknown_490", "shape": [], "dtype": "int32"}, {"name": "StatefulPartitionedCall/model_17/tf.strided_slice_37/StridedSlice/begin", "shape": [2], "dtype": "int32"}, {"name": "StatefulPartitionedCall/model_17/tf.strided_slice_37/StridedSlice/end", "shape": [2], "dtype": "int32"}, {"name": "StatefulPartitionedCall/model_17/tf.strided_slice_37/ones_like", "shape": [2], "dtype": "int32"}, {"name": "StatefulPartitionedCall/model_17/tf.compat.v1.transpose_37/transpose/perm", "shape": [2], "dtype": "int32"}, {"name": "unknown_489", "shape": [], "dtype": "int32"}, {"name": "unknown_488", "shape": [2, 2], "dtype": "int32"}, {"name": "unknown_495", "shape": [], "dtype": "int32"}, {"name": "StatefulPartitionedCall/model_17/tf.strided_slice_38/StridedSlice/begin", "shape": [2], "dtype": "int32"}, {"name": "StatefulPartitionedCall/model_17/tf.strided_slice_38/StridedSlice/end", "shape": [2], "dtype": "int32"}, {"name": "StatefulPartitionedCall/model_17/tf.strided_slice_38/ones_like", "shape": [2], "dtype": "int32"}, {"name": "StatefulPartitionedCall/model_17/tf.compat.v1.transpose_38/transpose/perm", "shape": [2], "dtype": "int32"}, {"name": "unknown_494", "shape": [], "dtype": "int32"}, {"name": "unknown_493", "shape": [2, 2], "dtype": "int32"}, {"name": "unknown_498", "shape": [], "dtype": "int32"}, {"name": "StatefulPartitionedCall/model_17/tf.strided_slice_39/StridedSlice/begin", "shape": [2], "dtype": "int32"}, {"name": "StatefulPartitionedCall/model_17/tf.strided_slice_39/StridedSlice/end", "shape": [2], "dtype": "int32"}, {"name": "StatefulPartitionedCall/model_17/tf.strided_slice_39/ones_like", "shape": [2], "dtype": "int32"}, {"name": "StatefulPartitionedCall/model_17/tf.compat.v1.transpose_39/transpose/perm", "shape": [2], "dtype": "int32"}, {"name": "unknown_497", "shape": [], "dtype": "int32"}, {"name": "unknown_496", "shape": [2, 2], "dtype": "int32"}, {"name": "unknown_501", "shape": [], "dtype": "int32"}, {"name": "StatefulPartitionedCall/model_17/tf.strided_slice_40/StridedSlice/begin", "shape": [2], "dtype": "int32"}, {"name": "StatefulPartitionedCall/model_17/tf.strided_slice_40/StridedSlice/end", "shape": [2], "dtype": "int32"}, {"name": "StatefulPartitionedCall/model_17/tf.strided_slice_40/ones_like", "shape": [2], "dtype": "int32"}, {"name": "StatefulPartitionedCall/model_17/tf.compat.v1.transpose_40/transpose/perm", "shape": [2], "dtype": "int32"}, {"name": "unknown_500", "shape": [], "dtype": "int32"}, {"name": "unknown_499", "shape": [2, 2], "dtype": "int32"}, {"name": "unknown_504", "shape": [], "dtype": "int32"}, {"name": "StatefulPartitionedCall/model_17/tf.strided_slice_41/StridedSlice/begin", "shape": [2], "dtype": "int32"}, {"name": "StatefulPartitionedCall/model_17/tf.strided_slice_41/StridedSlice/end", "shape": [2], "dtype": "int32"}, {"name": "StatefulPartitionedCall/model_17/tf.strided_slice_41/ones_like", "shape": [2], "dtype": "int32"}, {"name": "StatefulPartitionedCall/model_17/tf.compat.v1.transpose_41/transpose/perm", "shape": [2], "dtype": "int32"}, {"name": "unknown_503", "shape": [], "dtype": "int32"}, {"name": "unknown_502", "shape": [2, 2], "dtype": "int32"}, {"name": "unknown_507", "shape": [], "dtype": "int32"}, {"name": "StatefulPartitionedCall/model_17/tf.strided_slice_42/StridedSlice/begin", "shape": [2], "dtype": "int32"}, {"name": "StatefulPartitionedCall/model_17/tf.strided_slice_42/StridedSlice/end", "shape": [2], "dtype": "int32"}, {"name": "StatefulPartitionedCall/model_17/tf.strided_slice_42/ones_like", "shape": [2], "dtype": "int32"}, {"name": "StatefulPartitionedCall/model_17/tf.compat.v1.transpose_42/transpose/perm", "shape": [2], "dtype": "int32"}, {"name": "unknown_506", "shape": [], "dtype": "int32"}, {"name": "unknown_505", "shape": [2, 2], "dtype": "int32"}, {"name": "unknown_510", "shape": [], "dtype": "int32"}, {"name": "unknown_426", "shape": [3], "dtype": "int32"}, {"name": "unknown_427", "shape": [3], "dtype": "int32"}, {"name": "StatefulPartitionedCall/model_17/tf.strided_slice_25/StridedSlice/strides", "shape": [3], "dtype": "int32"}, {"name": "unknown_422", "shape": [3], "dtype": "int32"}, {"name": "unknown_423", "shape": [3], "dtype": "int32"}, {"name": "StatefulPartitionedCall/model_17/tf.strided_slice_26/StridedSlice/strides", "shape": [3], "dtype": "int32"}, {"name": "ConstantFolding/StatefulPartitionedCall/model_17/tf.math.divide_2/truediv_recip", "shape": [], "dtype": "float32"}, {"name": "unknown_424", "shape": [3], "dtype": "int32"}, {"name": "unknown_425", "shape": [3], "dtype": "int32"}, {"name": "StatefulPartitionedCall/model_17/tf.strided_slice_23/StridedSlice/strides", "shape": [3], "dtype": "int32"}, {"name": "unknown_418", "shape": [3], "dtype": "int32"}, {"name": "unknown_419", "shape": [3], "dtype": "int32"}, {"name": "StatefulPartitionedCall/model_17/tf.strided_slice_21/StridedSlice/strides", "shape": [3], "dtype": "int32"}, {"name": "StatefulPartitionedCall/model_17/tf.compat.v1.transpose_28/transpose/perm", "shape": [3], "dtype": "int32"}, {"name": "unknown_420", "shape": [3], "dtype": "int32"}, {"name": "unknown_421", "shape": [3], "dtype": "int32"}, {"name": "StatefulPartitionedCall/model_17/tf.strided_slice_24/StridedSlice/strides", "shape": [3], "dtype": "int32"}, {"name": "ConstantFolding/StatefulPartitionedCall/model_17/tf.math.divide_1/truediv_recip", "shape": [], "dtype": "float32"}, {"name": "StatefulPartitionedCall/model_17/tf.concat_42/concat/axis", "shape": [], "dtype": "int32"}, {"name": "ConstantFolding/StatefulPartitionedCall/model_17/tf.math.divide/truediv_recip", "shape": [], "dtype": "float32"}, {"name": "unknown_416", "shape": [1, 2, 6300], "dtype": "float32"}, {"name": "unknown_417", "shape": [1, 2, 6300], "dtype": "float32"}, {"name": "StatefulPartitionedCall/model_17/tf.split/split/split_dim", "shape": [], "dtype": "int32"}, {"name": "StatefulPartitionedCall/model_17/tf.strided_slice_19/StridedSlice/begin", "shape": [3], "dtype": "int32"}, {"name": "StatefulPartitionedCall/model_17/tf.strided_slice_19/StridedSlice/end", "shape": [3], "dtype": "int32"}, {"name": "StatefulPartitionedCall/model_17/tf.strided_slice_19/ones_like", "shape": [3], "dtype": "int32"}, {"name": "StatefulPartitionedCall/model_17/tf.reshape_11/Reshape/shape", "shape": [4], "dtype": "int32"}, {"name": "StatefulPartitionedCall/model_17/tf.compat.v1.transpose_19/transpose/perm", "shape": [4], "dtype": "int32"}, {"name": "StatefulPartitionedCall/model_17/tf.compat.v1.transpose_20/transpose/perm", "shape": [4], "dtype": "int32"}, {"name": "unknown_415", "shape": [1, 1, 16, 1], "dtype": "float32"}, {"name": "StatefulPartitionedCall/model_17/tf.compat.v1.transpose_25/transpose/perm", "shape": [4], "dtype": "int32"}, {"name": "StatefulPartitionedCall/model_17/tf.reshape_14/Reshape/shape", "shape": [3], "dtype": "int32"}, {"name": "StatefulPartitionedCall/model_17/tf.concat_35/concat/axis", "shape": [], "dtype": "int32"}, {"name": "StatefulPartitionedCall/model_17/tf.math.multiply_635/Mul/y", "shape": [1, 1, 6300], "dtype": "float32"}, {"name": "unknown_384", "shape": [3, 3, 32, 64], "dtype": "float32"}, {"name": "unknown_390", "shape": [64], "dtype": "float32"}, {"name": "StatefulPartitionedCall/model_17/tf.nn.convolution_124/convolution/ReadVariableOp", "shape": [3, 3, 16, 64], "dtype": "float32"}, {"name": "unknown_402", "shape": [64], "dtype": "float32"}, {"name": "StatefulPartitionedCall/model_17/tf.nn.convolution_127/convolution/ReadVariableOp", "shape": [1, 1, 16, 64], "dtype": "float32"}, {"name": "unknown_413", "shape": [64], "dtype": "float32"}, {"name": "unknown_383", "shape": [3, 3, 32, 32], "dtype": "float32"}, {"name": "unknown_389", "shape": [32], "dtype": "float32"}, {"name": "unknown_395", "shape": [3, 3, 32, 32], "dtype": "float32"}, {"name": "unknown_401", "shape": [32], "dtype": "float32"}, {"name": "unknown_407", "shape": [1, 1, 32, 15], "dtype": "float32"}, {"name": "unknown_414", "shape": [15], "dtype": "float32"}, {"name": "StatefulPartitionedCall/model_17/tf.concat_21/concat/axis", "shape": [], "dtype": "int32"}, {"name": "StatefulPartitionedCall/model_17/tf.compat.v1.transpose_2/transpose/perm", "shape": [4], "dtype": "int32"}, {"name": "StatefulPartitionedCall/model_17/tf.reshape_2/Reshape/shape", "shape": [3], "dtype": "int32"}, {"name": "unknown_382", "shape": [3, 3, 48, 64], "dtype": "float32"}, {"name": "unknown_388", "shape": [64], "dtype": "float32"}, {"name": "StatefulPartitionedCall/model_17/tf.nn.convolution_153/convolution/ReadVariableOp", "shape": [3, 3, 16, 64], "dtype": "float32"}, {"name": "unknown_400", "shape": [64], "dtype": "float32"}, {"name": "StatefulPartitionedCall/model_17/tf.nn.convolution_156/convolution/ReadVariableOp", "shape": [1, 1, 16, 64], "dtype": "float32"}, {"name": "unknown_411", "shape": [64], "dtype": "float32"}, {"name": "unknown_381", "shape": [3, 3, 48, 32], "dtype": "float32"}, {"name": "unknown_387", "shape": [32], "dtype": "float32"}, {"name": "unknown_393", "shape": [3, 3, 32, 32], "dtype": "float32"}, {"name": "unknown_399", "shape": [32], "dtype": "float32"}, {"name": "unknown_405", "shape": [1, 1, 32, 15], "dtype": "float32"}, {"name": "unknown_412", "shape": [15], "dtype": "float32"}, {"name": "StatefulPartitionedCall/model_17/tf.concat_26/concat/axis", "shape": [], "dtype": "int32"}, {"name": "StatefulPartitionedCall/model_17/tf.compat.v1.transpose_7/transpose/perm", "shape": [4], "dtype": "int32"}, {"name": "StatefulPartitionedCall/model_17/tf.reshape_5/Reshape/shape", "shape": [3], "dtype": "int32"}, {"name": "unknown_380", "shape": [3, 3, 64, 64], "dtype": "float32"}, {"name": "unknown_386", "shape": [64], "dtype": "float32"}, {"name": "StatefulPartitionedCall/model_17/tf.nn.convolution_181/convolution/ReadVariableOp", "shape": [3, 3, 16, 64], "dtype": "float32"}, {"name": "unknown_398", "shape": [64], "dtype": "float32"}, {"name": "StatefulPartitionedCall/model_17/tf.nn.convolution_183/convolution/ReadVariableOp", "shape": [1, 1, 16, 64], "dtype": "float32"}, {"name": "unknown_409", "shape": [64], "dtype": "float32"}, {"name": "unknown_375", "shape": [4], "dtype": "int32"}, {"name": "unknown_376", "shape": [4], "dtype": "int32"}, {"name": "StatefulPartitionedCall/model_17/tf.strided_slice_17/ones_like", "shape": [4], "dtype": "int32"}, {"name": "unknown_355", "shape": [1, 1, 32, 16], "dtype": "float32"}, {"name": "unknown_356", "shape": [16], "dtype": "float32"}, {"name": "unknown_357", "shape": [3, 3, 16, 16], "dtype": "float32"}, {"name": "unknown_358", "shape": [16], "dtype": "float32"}, {"name": "unknown_359", "shape": [3, 3, 16, 16], "dtype": "float32"}, {"name": "unknown_360", "shape": [16], "dtype": "float32"}, {"name": "unknown_361", "shape": [3, 3, 16, 16], "dtype": "float32"}, {"name": "unknown_362", "shape": [16], "dtype": "float32"}, {"name": "unknown_363", "shape": [3, 3, 16, 16], "dtype": "float32"}, {"name": "unknown_364", "shape": [16], "dtype": "float32"}, {"name": "unknown_365", "shape": [3, 3, 16, 16], "dtype": "float32"}, {"name": "unknown_366", "shape": [16], "dtype": "float32"}, {"name": "unknown_367", "shape": [3, 3, 16, 16], "dtype": "float32"}, {"name": "unknown_369", "shape": [16], "dtype": "float32"}, {"name": "unknown_335", "shape": [1, 1, 32, 16], "dtype": "float32"}, {"name": "unknown_336", "shape": [16], "dtype": "float32"}, {"name": "unknown_337", "shape": [3, 3, 16, 16], "dtype": "float32"}, {"name": "unknown_338", "shape": [16], "dtype": "float32"}, {"name": "unknown_339", "shape": [3, 3, 16, 16], "dtype": "float32"}, {"name": "unknown_340", "shape": [16], "dtype": "float32"}, {"name": "unknown_341", "shape": [3, 3, 16, 16], "dtype": "float32"}, {"name": "unknown_342", "shape": [16], "dtype": "float32"}, {"name": "unknown_343", "shape": [3, 3, 16, 16], "dtype": "float32"}, {"name": "unknown_344", "shape": [16], "dtype": "float32"}, {"name": "unknown_345", "shape": [3, 3, 16, 16], "dtype": "float32"}, {"name": "unknown_346", "shape": [16], "dtype": "float32"}, {"name": "unknown_347", "shape": [3, 3, 16, 16], "dtype": "float32"}, {"name": "unknown_349", "shape": [16], "dtype": "float32"}, {"name": "unknown_324", "shape": [4], "dtype": "int32"}, {"name": "unknown_325", "shape": [4], "dtype": "int32"}, {"name": "StatefulPartitionedCall/model_17/tf.strided_slice_15/ones_like", "shape": [4], "dtype": "int32"}, {"name": "unknown_304", "shape": [1, 1, 24, 12], "dtype": "float32"}, {"name": "unknown_305", "shape": [12], "dtype": "float32"}, {"name": "unknown_306", "shape": [3, 3, 12, 12], "dtype": "float32"}, {"name": "unknown_307", "shape": [12], "dtype": "float32"}, {"name": "unknown_308", "shape": [3, 3, 12, 12], "dtype": "float32"}, {"name": "unknown_309", "shape": [12], "dtype": "float32"}, {"name": "unknown_310", "shape": [3, 3, 12, 12], "dtype": "float32"}, {"name": "unknown_311", "shape": [12], "dtype": "float32"}, {"name": "unknown_312", "shape": [3, 3, 12, 12], "dtype": "float32"}, {"name": "unknown_313", "shape": [12], "dtype": "float32"}, {"name": "unknown_314", "shape": [3, 3, 12, 12], "dtype": "float32"}, {"name": "unknown_315", "shape": [12], "dtype": "float32"}, {"name": "unknown_316", "shape": [3, 3, 12, 12], "dtype": "float32"}, {"name": "unknown_318", "shape": [12], "dtype": "float32"}, {"name": "unknown_284", "shape": [1, 1, 24, 12], "dtype": "float32"}, {"name": "unknown_285", "shape": [12], "dtype": "float32"}, {"name": "unknown_286", "shape": [3, 3, 12, 12], "dtype": "float32"}, {"name": "unknown_287", "shape": [12], "dtype": "float32"}, {"name": "unknown_288", "shape": [3, 3, 12, 12], "dtype": "float32"}, {"name": "unknown_289", "shape": [12], "dtype": "float32"}, {"name": "unknown_290", "shape": [3, 3, 12, 12], "dtype": "float32"}, {"name": "unknown_291", "shape": [12], "dtype": "float32"}, {"name": "unknown_292", "shape": [3, 3, 12, 12], "dtype": "float32"}, {"name": "unknown_293", "shape": [12], "dtype": "float32"}, {"name": "unknown_294", "shape": [3, 3, 12, 12], "dtype": "float32"}, {"name": "unknown_295", "shape": [12], "dtype": "float32"}, {"name": "unknown_296", "shape": [3, 3, 12, 12], "dtype": "float32"}, {"name": "unknown_298", "shape": [12], "dtype": "float32"}, {"name": "unknown_273", "shape": [4], "dtype": "int32"}, {"name": "unknown_274", "shape": [4], "dtype": "int32"}, {"name": "StatefulPartitionedCall/model_17/tf.strided_slice_13/ones_like", "shape": [4], "dtype": "int32"}, {"name": "unknown_253", "shape": [1, 1, 16, 8], "dtype": "float32"}, {"name": "unknown_254", "shape": [8], "dtype": "float32"}, {"name": "unknown_255", "shape": [3, 3, 8, 8], "dtype": "float32"}, {"name": "unknown_256", "shape": [8], "dtype": "float32"}, {"name": "unknown_257", "shape": [3, 3, 8, 8], "dtype": "float32"}, {"name": "unknown_258", "shape": [8], "dtype": "float32"}, {"name": "unknown_259", "shape": [3, 3, 8, 8], "dtype": "float32"}, {"name": "unknown_260", "shape": [8], "dtype": "float32"}, {"name": "unknown_261", "shape": [3, 3, 8, 8], "dtype": "float32"}, {"name": "unknown_262", "shape": [8], "dtype": "float32"}, {"name": "unknown_263", "shape": [3, 3, 8, 8], "dtype": "float32"}, {"name": "unknown_264", "shape": [8], "dtype": "float32"}, {"name": "unknown_265", "shape": [3, 3, 8, 8], "dtype": "float32"}, {"name": "unknown_267", "shape": [8], "dtype": "float32"}, {"name": "unknown_233", "shape": [1, 1, 16, 8], "dtype": "float32"}, {"name": "unknown_234", "shape": [8], "dtype": "float32"}, {"name": "unknown_235", "shape": [3, 3, 8, 8], "dtype": "float32"}, {"name": "unknown_236", "shape": [8], "dtype": "float32"}, {"name": "unknown_237", "shape": [3, 3, 8, 8], "dtype": "float32"}, {"name": "unknown_238", "shape": [8], "dtype": "float32"}, {"name": "unknown_239", "shape": [3, 3, 8, 8], "dtype": "float32"}, {"name": "unknown_240", "shape": [8], "dtype": "float32"}, {"name": "unknown_241", "shape": [3, 3, 8, 8], "dtype": "float32"}, {"name": "unknown_242", "shape": [8], "dtype": "float32"}, {"name": "unknown_243", "shape": [3, 3, 8, 8], "dtype": "float32"}, {"name": "unknown_244", "shape": [8], "dtype": "float32"}, {"name": "unknown_245", "shape": [3, 3, 8, 8], "dtype": "float32"}, {"name": "unknown_247", "shape": [8], "dtype": "float32"}, {"name": "StatefulPartitionedCall/model_17/tf.compat.v1.image.resize_nearest_neighbor_2/ResizeNearestNeighbor/size", "shape": [2], "dtype": "int32"}, {"name": "StatefulPartitionedCall/model_17/tf.concat_16/concat/axis", "shape": [], "dtype": "int32"}, {"name": "unknown_229", "shape": [1, 1, 80, 32], "dtype": "float32"}, {"name": "unknown_230", "shape": [32], "dtype": "float32"}, {"name": "unknown_231", "shape": [4], "dtype": "int32"}, {"name": "unknown_232", "shape": [4], "dtype": "int32"}, {"name": "StatefulPartitionedCall/model_17/tf.strided_slice_14/ones_like", "shape": [4], "dtype": "int32"}, {"name": "unknown_246", "shape": [1, 1, 16, 8], "dtype": "float32"}, {"name": "unknown_248", "shape": [8], "dtype": "float32"}, {"name": "StatefulPartitionedCall/model_17/tf.concat_17/concat/axis", "shape": [], "dtype": "int32"}, {"name": "unknown_249", "shape": [1, 1, 16, 16], "dtype": "float32"}, {"name": "unknown_250", "shape": [16], "dtype": "float32"}, {"name": "unknown_251", "shape": [3, 3, 16, 16], "dtype": "float32"}, {"name": "unknown_252", "shape": [16], "dtype": "float32"}, {"name": "unknown_266", "shape": [1, 1, 16, 8], "dtype": "float32"}, {"name": "unknown_268", "shape": [8], "dtype": "float32"}, {"name": "StatefulPartitionedCall/model_17/tf.concat_18/concat/axis", "shape": [], "dtype": "int32"}, {"name": "unknown_269", "shape": [1, 1, 16, 16], "dtype": "float32"}, {"name": "unknown_270", "shape": [16], "dtype": "float32"}, {"name": "unknown_271", "shape": [3, 3, 16, 16], "dtype": "float32"}, {"name": "unknown_272", "shape": [16], "dtype": "float32"}, {"name": "StatefulPartitionedCall/model_17/tf.concat_19/concat/axis", "shape": [], "dtype": "int32"}, {"name": "unknown_275", "shape": [1, 1, 64, 32], "dtype": "float32"}, {"name": "unknown_276", "shape": [32], "dtype": "float32"}, {"name": "unknown_277", "shape": [4, 2], "dtype": "int32"}, {"name": "unknown_278", "shape": [3, 3, 32, 24], "dtype": "float32"}, {"name": "unknown_279", "shape": [24], "dtype": "float32"}, {"name": "unknown_225", "shape": [4], "dtype": "int32"}, {"name": "unknown_226", "shape": [4], "dtype": "int32"}, {"name": "StatefulPartitionedCall/model_17/tf.strided_slice_11/ones_like", "shape": [4], "dtype": "int32"}, {"name": "unknown_205", "shape": [1, 1, 24, 12], "dtype": "float32"}, {"name": "unknown_206", "shape": [12], "dtype": "float32"}, {"name": "unknown_207", "shape": [3, 3, 12, 12], "dtype": "float32"}, {"name": "unknown_208", "shape": [12], "dtype": "float32"}, {"name": "unknown_209", "shape": [3, 3, 12, 12], "dtype": "float32"}, {"name": "unknown_210", "shape": [12], "dtype": "float32"}, {"name": "unknown_211", "shape": [3, 3, 12, 12], "dtype": "float32"}, {"name": "unknown_212", "shape": [12], "dtype": "float32"}, {"name": "unknown_213", "shape": [3, 3, 12, 12], "dtype": "float32"}, {"name": "unknown_214", "shape": [12], "dtype": "float32"}, {"name": "unknown_215", "shape": [3, 3, 12, 12], "dtype": "float32"}, {"name": "unknown_216", "shape": [12], "dtype": "float32"}, {"name": "unknown_217", "shape": [3, 3, 12, 12], "dtype": "float32"}, {"name": "unknown_219", "shape": [12], "dtype": "float32"}, {"name": "unknown_185", "shape": [1, 1, 24, 12], "dtype": "float32"}, {"name": "unknown_186", "shape": [12], "dtype": "float32"}, {"name": "unknown_187", "shape": [3, 3, 12, 12], "dtype": "float32"}, {"name": "unknown_188", "shape": [12], "dtype": "float32"}, {"name": "unknown_189", "shape": [3, 3, 12, 12], "dtype": "float32"}, {"name": "unknown_190", "shape": [12], "dtype": "float32"}, {"name": "unknown_191", "shape": [3, 3, 12, 12], "dtype": "float32"}, {"name": "unknown_192", "shape": [12], "dtype": "float32"}, {"name": "unknown_193", "shape": [3, 3, 12, 12], "dtype": "float32"}, {"name": "unknown_194", "shape": [12], "dtype": "float32"}, {"name": "unknown_195", "shape": [3, 3, 12, 12], "dtype": "float32"}, {"name": "unknown_196", "shape": [12], "dtype": "float32"}, {"name": "unknown_197", "shape": [3, 3, 12, 12], "dtype": "float32"}, {"name": "unknown_199", "shape": [12], "dtype": "float32"}, {"name": "StatefulPartitionedCall/model_17/tf.compat.v1.image.resize_nearest_neighbor_1/ResizeNearestNeighbor/size", "shape": [2], "dtype": "int32"}, {"name": "StatefulPartitionedCall/model_17/tf.concat_12/concat/axis", "shape": [], "dtype": "int32"}, {"name": "unknown_181", "shape": [1, 1, 112, 48], "dtype": "float32"}, {"name": "unknown_182", "shape": [48], "dtype": "float32"}, {"name": "unknown_183", "shape": [4], "dtype": "int32"}, {"name": "unknown_184", "shape": [4], "dtype": "int32"}, {"name": "StatefulPartitionedCall/model_17/tf.strided_slice_12/ones_like", "shape": [4], "dtype": "int32"}, {"name": "unknown_198", "shape": [1, 1, 24, 12], "dtype": "float32"}, {"name": "unknown_200", "shape": [12], "dtype": "float32"}, {"name": "StatefulPartitionedCall/model_17/tf.concat_13/concat/axis", "shape": [], "dtype": "int32"}, {"name": "unknown_201", "shape": [1, 1, 24, 24], "dtype": "float32"}, {"name": "unknown_202", "shape": [24], "dtype": "float32"}, {"name": "unknown_203", "shape": [3, 3, 24, 24], "dtype": "float32"}, {"name": "unknown_204", "shape": [24], "dtype": "float32"}, {"name": "unknown_218", "shape": [1, 1, 24, 12], "dtype": "float32"}, {"name": "unknown_220", "shape": [12], "dtype": "float32"}, {"name": "StatefulPartitionedCall/model_17/tf.concat_14/concat/axis", "shape": [], "dtype": "int32"}, {"name": "unknown_221", "shape": [1, 1, 24, 24], "dtype": "float32"}, {"name": "unknown_222", "shape": [24], "dtype": "float32"}, {"name": "unknown_223", "shape": [3, 3, 24, 24], "dtype": "float32"}, {"name": "unknown_224", "shape": [24], "dtype": "float32"}, {"name": "StatefulPartitionedCall/model_17/tf.concat_15/concat/axis", "shape": [], "dtype": "int32"}, {"name": "unknown_227", "shape": [1, 1, 96, 48], "dtype": "float32"}, {"name": "unknown_228", "shape": [48], "dtype": "float32"}, {"name": "StatefulPartitionedCall/model_17/tf.concat_20/concat/axis", "shape": [], "dtype": "int32"}, {"name": "unknown_280", "shape": [1, 1, 72, 48], "dtype": "float32"}, {"name": "unknown_281", "shape": [48], "dtype": "float32"}, {"name": "unknown_282", "shape": [4], "dtype": "int32"}, {"name": "unknown_283", "shape": [4], "dtype": "int32"}, {"name": "StatefulPartitionedCall/model_17/tf.strided_slice_16/ones_like", "shape": [4], "dtype": "int32"}, {"name": "unknown_297", "shape": [1, 1, 24, 12], "dtype": "float32"}, {"name": "unknown_299", "shape": [12], "dtype": "float32"}, {"name": "StatefulPartitionedCall/model_17/tf.concat_22/concat/axis", "shape": [], "dtype": "int32"}, {"name": "unknown_300", "shape": [1, 1, 24, 24], "dtype": "float32"}, {"name": "unknown_301", "shape": [24], "dtype": "float32"}, {"name": "unknown_302", "shape": [3, 3, 24, 24], "dtype": "float32"}, {"name": "unknown_303", "shape": [24], "dtype": "float32"}, {"name": "unknown_317", "shape": [1, 1, 24, 12], "dtype": "float32"}, {"name": "unknown_319", "shape": [12], "dtype": "float32"}, {"name": "StatefulPartitionedCall/model_17/tf.concat_23/concat/axis", "shape": [], "dtype": "int32"}, {"name": "unknown_320", "shape": [1, 1, 24, 24], "dtype": "float32"}, {"name": "unknown_321", "shape": [24], "dtype": "float32"}, {"name": "unknown_322", "shape": [3, 3, 24, 24], "dtype": "float32"}, {"name": "unknown_323", "shape": [24], "dtype": "float32"}, {"name": "StatefulPartitionedCall/model_17/tf.concat_24/concat/axis", "shape": [], "dtype": "int32"}, {"name": "unknown_326", "shape": [1, 1, 96, 48], "dtype": "float32"}, {"name": "unknown_327", "shape": [48], "dtype": "float32"}, {"name": "unknown_328", "shape": [4, 2], "dtype": "int32"}, {"name": "unknown_329", "shape": [3, 3, 48, 32], "dtype": "float32"}, {"name": "unknown_330", "shape": [32], "dtype": "float32"}, {"name": "unknown_173", "shape": [4], "dtype": "int32"}, {"name": "unknown_174", "shape": [4], "dtype": "int32"}, {"name": "StatefulPartitionedCall/model_17/tf.strided_slice_9/ones_like", "shape": [4], "dtype": "int32"}, {"name": "unknown_153", "shape": [1, 1, 32, 16], "dtype": "float32"}, {"name": "unknown_154", "shape": [16], "dtype": "float32"}, {"name": "unknown_155", "shape": [3, 3, 16, 16], "dtype": "float32"}, {"name": "unknown_156", "shape": [16], "dtype": "float32"}, {"name": "unknown_157", "shape": [3, 3, 16, 16], "dtype": "float32"}, {"name": "unknown_158", "shape": [16], "dtype": "float32"}, {"name": "unknown_159", "shape": [3, 3, 16, 16], "dtype": "float32"}, {"name": "unknown_160", "shape": [16], "dtype": "float32"}, {"name": "unknown_161", "shape": [3, 3, 16, 16], "dtype": "float32"}, {"name": "unknown_162", "shape": [16], "dtype": "float32"}, {"name": "unknown_163", "shape": [3, 3, 16, 16], "dtype": "float32"}, {"name": "unknown_164", "shape": [16], "dtype": "float32"}, {"name": "unknown_165", "shape": [3, 3, 16, 16], "dtype": "float32"}, {"name": "unknown_167", "shape": [16], "dtype": "float32"}, {"name": "unknown_133", "shape": [1, 1, 32, 16], "dtype": "float32"}, {"name": "unknown_134", "shape": [16], "dtype": "float32"}, {"name": "unknown_135", "shape": [3, 3, 16, 16], "dtype": "float32"}, {"name": "unknown_136", "shape": [16], "dtype": "float32"}, {"name": "unknown_137", "shape": [3, 3, 16, 16], "dtype": "float32"}, {"name": "unknown_138", "shape": [16], "dtype": "float32"}, {"name": "unknown_139", "shape": [3, 3, 16, 16], "dtype": "float32"}, {"name": "unknown_140", "shape": [16], "dtype": "float32"}, {"name": "unknown_141", "shape": [3, 3, 16, 16], "dtype": "float32"}, {"name": "unknown_142", "shape": [16], "dtype": "float32"}, {"name": "unknown_143", "shape": [3, 3, 16, 16], "dtype": "float32"}, {"name": "unknown_144", "shape": [16], "dtype": "float32"}, {"name": "unknown_145", "shape": [3, 3, 16, 16], "dtype": "float32"}, {"name": "unknown_147", "shape": [16], "dtype": "float32"}, {"name": "unknown_122", "shape": [4], "dtype": "int32"}, {"name": "unknown_123", "shape": [4], "dtype": "int32"}, {"name": "StatefulPartitionedCall/model_17/tf.strided_slice_7/ones_like", "shape": [4], "dtype": "int32"}, {"name": "unknown_102", "shape": [1, 1, 24, 12], "dtype": "float32"}, {"name": "unknown_103", "shape": [12], "dtype": "float32"}, {"name": "unknown_104", "shape": [3, 3, 12, 12], "dtype": "float32"}, {"name": "unknown_105", "shape": [12], "dtype": "float32"}, {"name": "unknown_106", "shape": [3, 3, 12, 12], "dtype": "float32"}, {"name": "unknown_107", "shape": [12], "dtype": "float32"}, {"name": "unknown_108", "shape": [3, 3, 12, 12], "dtype": "float32"}, {"name": "unknown_109", "shape": [12], "dtype": "float32"}, {"name": "unknown_110", "shape": [3, 3, 12, 12], "dtype": "float32"}, {"name": "unknown_111", "shape": [12], "dtype": "float32"}, {"name": "unknown_112", "shape": [3, 3, 12, 12], "dtype": "float32"}, {"name": "unknown_113", "shape": [12], "dtype": "float32"}, {"name": "unknown_114", "shape": [3, 3, 12, 12], "dtype": "float32"}, {"name": "unknown_116", "shape": [12], "dtype": "float32"}, {"name": "unknown_82", "shape": [1, 1, 24, 12], "dtype": "float32"}, {"name": "unknown_83", "shape": [12], "dtype": "float32"}, {"name": "unknown_84", "shape": [3, 3, 12, 12], "dtype": "float32"}, {"name": "unknown_85", "shape": [12], "dtype": "float32"}, {"name": "unknown_86", "shape": [3, 3, 12, 12], "dtype": "float32"}, {"name": "unknown_87", "shape": [12], "dtype": "float32"}, {"name": "unknown_88", "shape": [3, 3, 12, 12], "dtype": "float32"}, {"name": "unknown_89", "shape": [12], "dtype": "float32"}, {"name": "unknown_90", "shape": [3, 3, 12, 12], "dtype": "float32"}, {"name": "unknown_91", "shape": [12], "dtype": "float32"}, {"name": "unknown_92", "shape": [3, 3, 12, 12], "dtype": "float32"}, {"name": "unknown_93", "shape": [12], "dtype": "float32"}, {"name": "unknown_94", "shape": [3, 3, 12, 12], "dtype": "float32"}, {"name": "unknown_96", "shape": [12], "dtype": "float32"}, {"name": "unknown_71", "shape": [4], "dtype": "int32"}, {"name": "unknown_72", "shape": [4], "dtype": "int32"}, {"name": "StatefulPartitionedCall/model_17/tf.strided_slice_5/ones_like", "shape": [4], "dtype": "int32"}, {"name": "unknown_51", "shape": [1, 1, 16, 8], "dtype": "float32"}, {"name": "unknown_52", "shape": [8], "dtype": "float32"}, {"name": "unknown_53", "shape": [3, 3, 8, 8], "dtype": "float32"}, {"name": "unknown_54", "shape": [8], "dtype": "float32"}, {"name": "unknown_55", "shape": [3, 3, 8, 8], "dtype": "float32"}, {"name": "unknown_56", "shape": [8], "dtype": "float32"}, {"name": "unknown_57", "shape": [3, 3, 8, 8], "dtype": "float32"}, {"name": "unknown_58", "shape": [8], "dtype": "float32"}, {"name": "unknown_59", "shape": [3, 3, 8, 8], "dtype": "float32"}, {"name": "unknown_60", "shape": [8], "dtype": "float32"}, {"name": "unknown_61", "shape": [3, 3, 8, 8], "dtype": "float32"}, {"name": "unknown_62", "shape": [8], "dtype": "float32"}, {"name": "unknown_63", "shape": [3, 3, 8, 8], "dtype": "float32"}, {"name": "unknown_65", "shape": [8], "dtype": "float32"}, {"name": "unknown_31", "shape": [1, 1, 16, 8], "dtype": "float32"}, {"name": "unknown_32", "shape": [8], "dtype": "float32"}, {"name": "unknown_33", "shape": [3, 3, 8, 8], "dtype": "float32"}, {"name": "unknown_34", "shape": [8], "dtype": "float32"}, {"name": "unknown_35", "shape": [3, 3, 8, 8], "dtype": "float32"}, {"name": "unknown_36", "shape": [8], "dtype": "float32"}, {"name": "unknown_37", "shape": [3, 3, 8, 8], "dtype": "float32"}, {"name": "unknown_38", "shape": [8], "dtype": "float32"}, {"name": "unknown_39", "shape": [3, 3, 8, 8], "dtype": "float32"}, {"name": "unknown_40", "shape": [8], "dtype": "float32"}, {"name": "unknown_41", "shape": [3, 3, 8, 8], "dtype": "float32"}, {"name": "unknown_42", "shape": [8], "dtype": "float32"}, {"name": "unknown_43", "shape": [3, 3, 8, 8], "dtype": "float32"}, {"name": "unknown_45", "shape": [8], "dtype": "float32"}, {"name": "unknown_20", "shape": [4], "dtype": "int32"}, {"name": "unknown_21", "shape": [4], "dtype": "int32"}, {"name": "StatefulPartitionedCall/model_17/tf.strided_slice_3/ones_like", "shape": [4], "dtype": "int32"}, {"name": "unknown_0", "shape": [4], "dtype": "int32"}, {"name": "unknown_1", "shape": [4], "dtype": "int32"}, {"name": "StatefulPartitionedCall/model_17/tf.strided_slice/StridedSlice/strides", "shape": [4], "dtype": "int32"}, {"name": "unknown_2", "shape": [4], "dtype": "int32"}, {"name": "unknown_3", "shape": [4], "dtype": "int32"}, {"name": "StatefulPartitionedCall/model_17/tf.strided_slice_1/StridedSlice/strides", "shape": [4], "dtype": "int32"}, {"name": "unknown", "shape": [2], "dtype": "int32"}, {"name": "unknown_4", "shape": [4], "dtype": "int32"}, {"name": "unknown_5", "shape": [4], "dtype": "int32"}, {"name": "StatefulPartitionedCall/model_17/tf.strided_slice_2/StridedSlice/strides", "shape": [4], "dtype": "int32"}, {"name": "StatefulPartitionedCall/model_17/tf.concat/concat/axis", "shape": [], "dtype": "int32"}, {"name": "StatefulPartitionedCall/model_17/tf.math.multiply_1/Mul/y", "shape": [], "dtype": "float32"}, {"name": "unknown_6", "shape": [4, 2], "dtype": "int32"}, {"name": "unknown_7", "shape": [3, 3, 3, 8], "dtype": "float32"}, {"name": "unknown_8", "shape": [8], "dtype": "float32"}, {"name": "unknown_9", "shape": [4, 2], "dtype": "int32"}, {"name": "unknown_10", "shape": [3, 3, 8, 16], "dtype": "float32"}, {"name": "unknown_11", "shape": [16], "dtype": "float32"}, {"name": "unknown_12", "shape": [1, 1, 16, 16], "dtype": "float32"}, {"name": "unknown_13", "shape": [16], "dtype": "float32"}, {"name": "unknown_14", "shape": [4], "dtype": "int32"}, {"name": "unknown_15", "shape": [4], "dtype": "int32"}, {"name": "StatefulPartitionedCall/model_17/tf.strided_slice_4/ones_like", "shape": [4], "dtype": "int32"}, {"name": "unknown_16", "shape": [3, 3, 8, 8], "dtype": "float32"}, {"name": "unknown_17", "shape": [8], "dtype": "float32"}, {"name": "unknown_18", "shape": [3, 3, 8, 8], "dtype": "float32"}, {"name": "unknown_19", "shape": [8], "dtype": "float32"}, {"name": "StatefulPartitionedCall/model_17/tf.concat_1/concat/axis", "shape": [], "dtype": "int32"}, {"name": "unknown_22", "shape": [1, 1, 32, 16], "dtype": "float32"}, {"name": "unknown_23", "shape": [16], "dtype": "float32"}, {"name": "unknown_24", "shape": [4, 2], "dtype": "int32"}, {"name": "unknown_25", "shape": [3, 3, 16, 32], "dtype": "float32"}, {"name": "unknown_26", "shape": [32], "dtype": "float32"}, {"name": "unknown_27", "shape": [1, 1, 32, 32], "dtype": "float32"}, {"name": "unknown_28", "shape": [32], "dtype": "float32"}, {"name": "unknown_29", "shape": [4], "dtype": "int32"}, {"name": "unknown_30", "shape": [4], "dtype": "int32"}, {"name": "StatefulPartitionedCall/model_17/tf.strided_slice_6/ones_like", "shape": [4], "dtype": "int32"}, {"name": "unknown_44", "shape": [1, 1, 16, 8], "dtype": "float32"}, {"name": "unknown_46", "shape": [8], "dtype": "float32"}, {"name": "StatefulPartitionedCall/model_17/tf.concat_2/concat/axis", "shape": [], "dtype": "int32"}, {"name": "unknown_47", "shape": [1, 1, 16, 16], "dtype": "float32"}, {"name": "unknown_48", "shape": [16], "dtype": "float32"}, {"name": "unknown_49", "shape": [3, 3, 16, 16], "dtype": "float32"}, {"name": "unknown_50", "shape": [16], "dtype": "float32"}, {"name": "unknown_64", "shape": [1, 1, 16, 8], "dtype": "float32"}, {"name": "unknown_66", "shape": [8], "dtype": "float32"}, {"name": "StatefulPartitionedCall/model_17/tf.concat_3/concat/axis", "shape": [], "dtype": "int32"}, {"name": "unknown_67", "shape": [1, 1, 16, 16], "dtype": "float32"}, {"name": "unknown_68", "shape": [16], "dtype": "float32"}, {"name": "unknown_69", "shape": [3, 3, 16, 16], "dtype": "float32"}, {"name": "unknown_70", "shape": [16], "dtype": "float32"}, {"name": "StatefulPartitionedCall/model_17/tf.concat_4/concat/axis", "shape": [], "dtype": "int32"}, {"name": "unknown_73", "shape": [1, 1, 64, 32], "dtype": "float32"}, {"name": "unknown_74", "shape": [32], "dtype": "float32"}, {"name": "unknown_75", "shape": [4, 2], "dtype": "int32"}, {"name": "unknown_76", "shape": [3, 3, 32, 48], "dtype": "float32"}, {"name": "unknown_77", "shape": [48], "dtype": "float32"}, {"name": "unknown_78", "shape": [1, 1, 48, 48], "dtype": "float32"}, {"name": "unknown_79", "shape": [48], "dtype": "float32"}, {"name": "unknown_80", "shape": [4], "dtype": "int32"}, {"name": "unknown_81", "shape": [4], "dtype": "int32"}, {"name": "StatefulPartitionedCall/model_17/tf.strided_slice_8/ones_like", "shape": [4], "dtype": "int32"}, {"name": "unknown_95", "shape": [1, 1, 24, 12], "dtype": "float32"}, {"name": "unknown_97", "shape": [12], "dtype": "float32"}, {"name": "StatefulPartitionedCall/model_17/tf.concat_5/concat/axis", "shape": [], "dtype": "int32"}, {"name": "unknown_98", "shape": [1, 1, 24, 24], "dtype": "float32"}, {"name": "unknown_99", "shape": [24], "dtype": "float32"}, {"name": "unknown_100", "shape": [3, 3, 24, 24], "dtype": "float32"}, {"name": "unknown_101", "shape": [24], "dtype": "float32"}, {"name": "unknown_115", "shape": [1, 1, 24, 12], "dtype": "float32"}, {"name": "unknown_117", "shape": [12], "dtype": "float32"}, {"name": "StatefulPartitionedCall/model_17/tf.concat_6/concat/axis", "shape": [], "dtype": "int32"}, {"name": "unknown_118", "shape": [1, 1, 24, 24], "dtype": "float32"}, {"name": "unknown_119", "shape": [24], "dtype": "float32"}, {"name": "unknown_120", "shape": [3, 3, 24, 24], "dtype": "float32"}, {"name": "unknown_121", "shape": [24], "dtype": "float32"}, {"name": "StatefulPartitionedCall/model_17/tf.concat_7/concat/axis", "shape": [], "dtype": "int32"}, {"name": "unknown_124", "shape": [1, 1, 96, 48], "dtype": "float32"}, {"name": "unknown_125", "shape": [48], "dtype": "float32"}, {"name": "unknown_126", "shape": [4, 2], "dtype": "int32"}, {"name": "unknown_127", "shape": [3, 3, 48, 64], "dtype": "float32"}, {"name": "unknown_128", "shape": [64], "dtype": "float32"}, {"name": "unknown_129", "shape": [1, 1, 64, 64], "dtype": "float32"}, {"name": "unknown_130", "shape": [64], "dtype": "float32"}, {"name": "unknown_131", "shape": [4], "dtype": "int32"}, {"name": "unknown_132", "shape": [4], "dtype": "int32"}, {"name": "StatefulPartitionedCall/model_17/tf.strided_slice_10/ones_like", "shape": [4], "dtype": "int32"}, {"name": "unknown_146", "shape": [1, 1, 32, 16], "dtype": "float32"}, {"name": "unknown_148", "shape": [16], "dtype": "float32"}, {"name": "StatefulPartitionedCall/model_17/tf.concat_8/concat/axis", "shape": [], "dtype": "int32"}, {"name": "unknown_149", "shape": [1, 1, 32, 32], "dtype": "float32"}, {"name": "unknown_150", "shape": [32], "dtype": "float32"}, {"name": "unknown_151", "shape": [3, 3, 32, 32], "dtype": "float32"}, {"name": "unknown_152", "shape": [32], "dtype": "float32"}, {"name": "unknown_166", "shape": [1, 1, 32, 16], "dtype": "float32"}, {"name": "unknown_168", "shape": [16], "dtype": "float32"}, {"name": "StatefulPartitionedCall/model_17/tf.concat_9/concat/axis", "shape": [], "dtype": "int32"}, {"name": "unknown_169", "shape": [1, 1, 32, 32], "dtype": "float32"}, {"name": "unknown_170", "shape": [32], "dtype": "float32"}, {"name": "unknown_171", "shape": [3, 3, 32, 32], "dtype": "float32"}, {"name": "unknown_172", "shape": [32], "dtype": "float32"}, {"name": "StatefulPartitionedCall/model_17/tf.concat_10/concat/axis", "shape": [], "dtype": "int32"}, {"name": "unknown_175", "shape": [1, 1, 128, 64], "dtype": "float32"}, {"name": "unknown_176", "shape": [64], "dtype": "float32"}, {"name": "unknown_177", "shape": [1, 1, 64, 32], "dtype": "float32"}, {"name": "unknown_178", "shape": [32], "dtype": "float32"}, {"name": "StatefulPartitionedCall/model_17/tf.concat_11/concat/axis", "shape": [], "dtype": "int32"}, {"name": "unknown_179", "shape": [1, 1, 128, 64], "dtype": "float32"}, {"name": "unknown_180", "shape": [64], "dtype": "float32"}, {"name": "StatefulPartitionedCall/model_17/tf.concat_25/concat/axis", "shape": [], "dtype": "int32"}, {"name": "unknown_331", "shape": [1, 1, 96, 64], "dtype": "float32"}, {"name": "unknown_332", "shape": [64], "dtype": "float32"}, {"name": "unknown_333", "shape": [4], "dtype": "int32"}, {"name": "unknown_334", "shape": [4], "dtype": "int32"}, {"name": "StatefulPartitionedCall/model_17/tf.strided_slice_18/ones_like", "shape": [4], "dtype": "int32"}, {"name": "unknown_348", "shape": [1, 1, 32, 16], "dtype": "float32"}, {"name": "unknown_350", "shape": [16], "dtype": "float32"}, {"name": "StatefulPartitionedCall/model_17/tf.concat_27/concat/axis", "shape": [], "dtype": "int32"}, {"name": "unknown_351", "shape": [1, 1, 32, 32], "dtype": "float32"}, {"name": "unknown_352", "shape": [32], "dtype": "float32"}, {"name": "unknown_353", "shape": [3, 3, 32, 32], "dtype": "float32"}, {"name": "unknown_354", "shape": [32], "dtype": "float32"}, {"name": "unknown_368", "shape": [1, 1, 32, 16], "dtype": "float32"}, {"name": "unknown_370", "shape": [16], "dtype": "float32"}, {"name": "StatefulPartitionedCall/model_17/tf.concat_28/concat/axis", "shape": [], "dtype": "int32"}, {"name": "unknown_371", "shape": [1, 1, 32, 32], "dtype": "float32"}, {"name": "unknown_372", "shape": [32], "dtype": "float32"}, {"name": "unknown_373", "shape": [3, 3, 32, 32], "dtype": "float32"}, {"name": "unknown_374", "shape": [32], "dtype": "float32"}, {"name": "StatefulPartitionedCall/model_17/tf.concat_29/concat/axis", "shape": [], "dtype": "int32"}, {"name": "unknown_377", "shape": [1, 1, 128, 64], "dtype": "float32"}, {"name": "unknown_378", "shape": [64], "dtype": "float32"}, {"name": "unknown_379", "shape": [3, 3, 64, 32], "dtype": "float32"}, {"name": "unknown_385", "shape": [32], "dtype": "float32"}, {"name": "unknown_391", "shape": [3, 3, 32, 32], "dtype": "float32"}, {"name": "unknown_397", "shape": [32], "dtype": "float32"}, {"name": "unknown_403", "shape": [1, 1, 32, 15], "dtype": "float32"}, {"name": "unknown_410", "shape": [15], "dtype": "float32"}, {"name": "StatefulPartitionedCall/model_17/tf.concat_30/concat/axis", "shape": [], "dtype": "int32"}, {"name": "StatefulPartitionedCall/model_17/tf.compat.v1.transpose_12/transpose/perm", "shape": [4], "dtype": "int32"}, {"name": "StatefulPartitionedCall/model_17/tf.reshape_8/Reshape/shape", "shape": [3], "dtype": "int32"}, {"name": "StatefulPartitionedCall/model_17/tf.concat_31/concat/axis", "shape": [], "dtype": "int32"}, {"name": "StatefulPartitionedCall/model_17/tf.strided_slice_20/StridedSlice/begin", "shape": [3], "dtype": "int32"}, {"name": "StatefulPartitionedCall/model_17/tf.strided_slice_20/StridedSlice/end", "shape": [3], "dtype": "int32"}, {"name": "StatefulPartitionedCall/model_17/tf.strided_slice_20/ones_like", "shape": [3], "dtype": "int32"}, {"name": "StatefulPartitionedCall/model_17/tf.concat_36/concat/axis", "shape": [], "dtype": "int32"}, {"name": "unknown_428", "shape": [3], "dtype": "int32"}, {"name": "unknown_429", "shape": [3], "dtype": "int32"}, {"name": "StatefulPartitionedCall/model_17/tf.strided_slice_22/StridedSlice/strides", "shape": [3], "dtype": "int32"}, {"name": "StatefulPartitionedCall/model_17/tf.strided_slice_43/StridedSlice/begin", "shape": [2], "dtype": "int32"}, {"name": "StatefulPartitionedCall/model_17/tf.strided_slice_43/StridedSlice/end", "shape": [2], "dtype": "int32"}, {"name": "StatefulPartitionedCall/model_17/tf.strided_slice_43/ones_like", "shape": [2], "dtype": "int32"}, {"name": "StatefulPartitionedCall/model_17/tf.compat.v1.squeeze_9/Squeeze", "shape": [], "dtype": "int32"}, {"name": "unknown_443", "shape": [], "dtype": "float32"}, {"name": "unknown_444", "shape": [], "dtype": "float32"}, {"name": "StatefulPartitionedCall/model_17/tf.compat.v1.transpose_43/transpose/perm", "shape": [2], "dtype": "int32"}, {"name": "unknown_509", "shape": [], "dtype": "int32"}, {"name": "unknown_508", "shape": [2, 2], "dtype": "int32"}, {"name": "unknown_511", "shape": [], "dtype": "int32"}, {"name": "StatefulPartitionedCall/model_17/tf.concat_56/concat/axis", "shape": [], "dtype": "int32"}, {"name": "unknown_513", "shape": [2], "dtype": "int32"}, {"name": "StatefulPartitionedCall/model_17/tf.compat.v1.gather/GatherV2/axis", "shape": [], "dtype": "int32"}, {"name": "unknown_514", "shape": [2], "dtype": "int32"}, {"name": "StatefulPartitionedCall/model_17/batchno_classid_score_x1y1x2y2/concat/axis", "shape": [], "dtype": "int32"}, {"name": "ConstantFolding/StatefulPartitionedCall/model_17/tf.compat.v1.transpose_29/transpose/a_const_axis", "shape": [], "dtype": "int32"}, {"name": "ConstantFolding/StatefulPartitionedCall/model_17/tf.compat.v1.transpose_30/transpose/a_const_axis", "shape": [], "dtype": "int32"}, {"name": "ConstantFolding/StatefulPartitionedCall/model_17/tf.compat.v1.transpose_31/transpose/a_const_axis", "shape": [], "dtype": "int32"}, {"name": "ConstantFolding/StatefulPartitionedCall/model_17/tf.compat.v1.transpose_32/transpose/a_const_axis", "shape": [], "dtype": "int32"}, {"name": "ConstantFolding/StatefulPartitionedCall/model_17/tf.compat.v1.transpose_33/transpose/a_const_axis", "shape": [], "dtype": "int32"}, {"name": "ConstantFolding/StatefulPartitionedCall/model_17/tf.compat.v1.transpose_34/transpose/a_const_axis", "shape": [], "dtype": "int32"}, {"name": "ConstantFolding/StatefulPartitionedCall/model_17/tf.compat.v1.transpose_35/transpose/a_const_axis", "shape": [], "dtype": "int32"}, {"name": "ConstantFolding/StatefulPartitionedCall/model_17/tf.compat.v1.transpose_36/transpose/a_const_axis", "shape": [], "dtype": "int32"}, {"name": "ConstantFolding/StatefulPartitionedCall/model_17/tf.compat.v1.transpose_37/transpose/a_const_axis", "shape": [], "dtype": "int32"}, {"name": "ConstantFolding/StatefulPartitionedCall/model_17/tf.compat.v1.transpose_38/transpose/a_const_axis", "shape": [], "dtype": "int32"}, {"name": "ConstantFolding/StatefulPartitionedCall/model_17/tf.compat.v1.transpose_39/transpose/a_const_axis", "shape": [], "dtype": "int32"}, {"name": "ConstantFolding/StatefulPartitionedCall/model_17/tf.compat.v1.transpose_40/transpose/a_const_axis", "shape": [], "dtype": "int32"}, {"name": "ConstantFolding/StatefulPartitionedCall/model_17/tf.compat.v1.transpose_41/transpose/a_const_axis", "shape": [], "dtype": "int32"}, {"name": "ConstantFolding/StatefulPartitionedCall/model_17/tf.compat.v1.transpose_42/transpose/a_const_axis", "shape": [], "dtype": "int32"}, {"name": "ConstantFolding/StatefulPartitionedCall/model_17/tf.compat.v1.transpose_43/transpose/a_const_axis", "shape": [], "dtype": "int32"}]}]}